{"format": "layers-model", "generatedBy": "keras v2.19.0", "convertedBy": "TensorFlow.js Converter v4.22.0", "modelTopology": {"keras_version": "2.19.0", "backend": "tensorflow", "model_config": {"class_name": "Functional", "config": {"name": "model", "trainable": true, "layers": [{"class_name": "InputLayer", "config": {"batch_input_shape": [null, 224, 224, 3], "dtype": "float32", "sparse": false, "ragged": false, "name": "input_2"}, "name": "input_2", "inbound_nodes": []}, {"class_name": "Functional", "config": {"name": "mobilenetv2_1.00_224", "trainable": true, "layers": [{"class_name": "InputLayer", "config": {"batch_input_shape": [null, 224, 224, 3], "dtype": "float32", "sparse": false, "ragged": false, "name": "input_1"}, "name": "input_1", "inbound_nodes": []}, {"class_name": "Conv2D", "config": {"name": "Conv1", "trainable": true, "dtype": "float32", "filters": 32, "kernel_size": [3, 3], "strides": [2, 2], "padding": "same", "data_format": "channels_last", "dilation_rate": [1, 1], "groups": 1, "activation": "linear", "use_bias": false, "kernel_initializer": {"module": "keras.initializers", "class_name": "GlorotUniform", "config": {"seed": null}, "registered_name": null}, "bias_initializer": {"module": "keras.initializers", "class_name": "Zeros", "config": {}, "registered_name": null}, "kernel_regularizer": null, "bias_regularizer": null, "activity_regularizer": null, "kernel_constraint": null, "bias_constraint": null}, "name": "Conv1", "inbound_nodes": [[["input_1", 0, 0, {}]]]}, {"class_name": "BatchNormalization", "config": {"name": "bn_Conv1", "trainable": true, "dtype": "float32", "axis": [3], "momentum": 0.999, "epsilon": 0.001, "center": true, "scale": true, "beta_initializer": {"module": "keras.initializers", "class_name": "Zeros", "config": {}, "registered_name": null}, "gamma_initializer": {"module": "keras.initializers", "class_name": "Ones", "config": {}, "registered_name": null}, "moving_mean_initializer": {"module": "keras.initializers", "class_name": "Zeros", "config": {}, "registered_name": null}, "moving_variance_initializer": {"module": "keras.initializers", "class_name": "Ones", "config": {}, "registered_name": null}, "beta_regularizer": null, "gamma_regularizer": null, "beta_constraint": null, "gamma_constraint": null}, "name": "bn_Conv1", "inbound_nodes": [[["Conv1", 0, 0, {}]]]}, {"class_name": "ReLU", "config": {"name": "Conv1_relu", "trainable": true, "dtype": "float32", "max_value": 6.0, "negative_slope": 0.0, "threshold": 0.0}, "name": "Conv1_relu", "inbound_nodes": [[["bn_Conv1", 0, 0, {}]]]}, {"class_name": "DepthwiseConv2D", "config": {"name": "expanded_conv_depthwise", "trainable": true, "dtype": "float32", "kernel_size": [3, 3], "strides": [1, 1], "padding": "same", "data_format": "channels_last", "dilation_rate": [1, 1], "groups": 1, "activation": "linear", "use_bias": false, "bias_initializer": {"module": "keras.initializers", "class_name": "Zeros", "config": {}, "registered_name": null}, "bias_regularizer": null, "activity_regularizer": null, "bias_constraint": null, "depth_multiplier": 1, "depthwise_initializer": {"module": "keras.initializers", "class_name": "GlorotUniform", "config": {"seed": null}, "registered_name": null}, "depthwise_regularizer": null, "depthwise_constraint": null}, "name": "expanded_conv_depthwise", "inbound_nodes": [[["Conv1_relu", 0, 0, {}]]]}, {"class_name": "BatchNormalization", "config": {"name": "expanded_conv_depthwise_BN", "trainable": true, "dtype": "float32", "axis": [3], "momentum": 0.999, "epsilon": 0.001, "center": true, "scale": true, "beta_initializer": {"module": "keras.initializers", "class_name": "Zeros", "config": {}, "registered_name": null}, "gamma_initializer": {"module": "keras.initializers", "class_name": "Ones", "config": {}, "registered_name": null}, "moving_mean_initializer": {"module": "keras.initializers", "class_name": "Zeros", "config": {}, "registered_name": null}, "moving_variance_initializer": {"module": "keras.initializers", "class_name": "Ones", "config": {}, "registered_name": null}, "beta_regularizer": null, "gamma_regularizer": null, "beta_constraint": null, "gamma_constraint": null}, "name": "expanded_conv_depthwise_BN", "inbound_nodes": [[["expanded_conv_depthwise", 0, 0, {}]]]}, {"class_name": "ReLU", "config": {"name": "expanded_conv_depthwise_relu", "trainable": true, "dtype": "float32", "max_value": 6.0, "negative_slope": 0.0, "threshold": 0.0}, "name": "expanded_conv_depthwise_relu", "inbound_nodes": [[["expanded_conv_depthwise_BN", 0, 0, {}]]]}, {"class_name": "Conv2D", "config": {"name": "expanded_conv_project", "trainable": true, "dtype": "float32", "filters": 16, "kernel_size": [1, 1], "strides": [1, 1], "padding": "same", "data_format": "channels_last", "dilation_rate": [1, 1], "groups": 1, "activation": "linear", "use_bias": false, "kernel_initializer": {"module": "keras.initializers", "class_name": "GlorotUniform", "config": {"seed": null}, "registered_name": null}, "bias_initializer": {"module": "keras.initializers", "class_name": "Zeros", "config": {}, "registered_name": null}, "kernel_regularizer": null, "bias_regularizer": null, "activity_regularizer": null, "kernel_constraint": null, "bias_constraint": null}, "name": "expanded_conv_project", "inbound_nodes": [[["expanded_conv_depthwise_relu", 0, 0, {}]]]}, {"class_name": "BatchNormalization", "config": {"name": "expanded_conv_project_BN", "trainable": true, "dtype": "float32", "axis": [3], "momentum": 0.999, "epsilon": 0.001, "center": true, "scale": true, "beta_initializer": {"module": "keras.initializers", "class_name": "Zeros", "config": {}, "registered_name": null}, "gamma_initializer": {"module": "keras.initializers", "class_name": "Ones", "config": {}, "registered_name": null}, "moving_mean_initializer": {"module": "keras.initializers", "class_name": "Zeros", "config": {}, "registered_name": null}, "moving_variance_initializer": {"module": "keras.initializers", "class_name": "Ones", "config": {}, "registered_name": null}, "beta_regularizer": null, "gamma_regularizer": null, "beta_constraint": null, "gamma_constraint": null}, "name": "expanded_conv_project_BN", "inbound_nodes": [[["expanded_conv_project", 0, 0, {}]]]}, {"class_name": "Conv2D", "config": {"name": "block_1_expand", "trainable": true, "dtype": "float32", "filters": 96, "kernel_size": [1, 1], "strides": [1, 1], "padding": "same", "data_format": "channels_last", "dilation_rate": [1, 1], "groups": 1, "activation": "linear", "use_bias": false, "kernel_initializer": {"module": "keras.initializers", "class_name": "GlorotUniform", "config": {"seed": null}, "registered_name": null}, "bias_initializer": {"module": "keras.initializers", "class_name": "Zeros", "config": {}, "registered_name": null}, "kernel_regularizer": null, "bias_regularizer": null, "activity_regularizer": null, "kernel_constraint": null, "bias_constraint": null}, "name": "block_1_expand", "inbound_nodes": [[["expanded_conv_project_BN", 0, 0, {}]]]}, {"class_name": "BatchNormalization", "config": {"name": "block_1_expand_BN", "trainable": true, "dtype": "float32", "axis": [3], "momentum": 0.999, "epsilon": 0.001, "center": true, "scale": true, "beta_initializer": {"module": "keras.initializers", "class_name": "Zeros", "config": {}, "registered_name": null}, "gamma_initializer": {"module": "keras.initializers", "class_name": "Ones", "config": {}, "registered_name": null}, "moving_mean_initializer": {"module": "keras.initializers", "class_name": "Zeros", "config": {}, "registered_name": null}, "moving_variance_initializer": {"module": "keras.initializers", "class_name": "Ones", "config": {}, "registered_name": null}, "beta_regularizer": null, "gamma_regularizer": null, "beta_constraint": null, "gamma_constraint": null}, "name": "block_1_expand_BN", "inbound_nodes": [[["block_1_expand", 0, 0, {}]]]}, {"class_name": "ReLU", "config": {"name": "block_1_expand_relu", "trainable": true, "dtype": "float32", "max_value": 6.0, "negative_slope": 0.0, "threshold": 0.0}, "name": "block_1_expand_relu", "inbound_nodes": [[["block_1_expand_BN", 0, 0, {}]]]}, {"class_name": "ZeroPadding2D", "config": {"name": "block_1_pad", "trainable": true, "dtype": "float32", "padding": [[0, 1], [0, 1]], "data_format": "channels_last"}, "name": "block_1_pad", "inbound_nodes": [[["block_1_expand_relu", 0, 0, {}]]]}, {"class_name": "DepthwiseConv2D", "config": {"name": "block_1_depthwise", "trainable": true, "dtype": "float32", "kernel_size": [3, 3], "strides": [2, 2], "padding": "valid", "data_format": "channels_last", "dilation_rate": [1, 1], "groups": 1, "activation": "linear", "use_bias": false, "bias_initializer": {"module": "keras.initializers", "class_name": "Zeros", "config": {}, "registered_name": null}, "bias_regularizer": null, "activity_regularizer": null, "bias_constraint": null, "depth_multiplier": 1, "depthwise_initializer": {"module": "keras.initializers", "class_name": "GlorotUniform", "config": {"seed": null}, "registered_name": null}, "depthwise_regularizer": null, "depthwise_constraint": null}, "name": "block_1_depthwise", "inbound_nodes": [[["block_1_pad", 0, 0, {}]]]}, {"class_name": "BatchNormalization", "config": {"name": "block_1_depthwise_BN", "trainable": true, "dtype": "float32", "axis": [3], "momentum": 0.999, "epsilon": 0.001, "center": true, "scale": true, "beta_initializer": {"module": "keras.initializers", "class_name": "Zeros", "config": {}, "registered_name": null}, "gamma_initializer": {"module": "keras.initializers", "class_name": "Ones", "config": {}, "registered_name": null}, "moving_mean_initializer": {"module": "keras.initializers", "class_name": "Zeros", "config": {}, "registered_name": null}, "moving_variance_initializer": {"module": "keras.initializers", "class_name": "Ones", "config": {}, "registered_name": null}, "beta_regularizer": null, "gamma_regularizer": null, "beta_constraint": null, "gamma_constraint": null}, "name": "block_1_depthwise_BN", "inbound_nodes": [[["block_1_depthwise", 0, 0, {}]]]}, {"class_name": "ReLU", "config": {"name": "block_1_depthwise_relu", "trainable": true, "dtype": "float32", "max_value": 6.0, "negative_slope": 0.0, "threshold": 0.0}, "name": "block_1_depthwise_relu", "inbound_nodes": [[["block_1_depthwise_BN", 0, 0, {}]]]}, {"class_name": "Conv2D", "config": {"name": "block_1_project", "trainable": true, "dtype": "float32", "filters": 24, "kernel_size": [1, 1], "strides": [1, 1], "padding": "same", "data_format": "channels_last", "dilation_rate": [1, 1], "groups": 1, "activation": "linear", "use_bias": false, "kernel_initializer": {"module": "keras.initializers", "class_name": "GlorotUniform", "config": {"seed": null}, "registered_name": null}, "bias_initializer": {"module": "keras.initializers", "class_name": "Zeros", "config": {}, "registered_name": null}, "kernel_regularizer": null, "bias_regularizer": null, "activity_regularizer": null, "kernel_constraint": null, "bias_constraint": null}, "name": "block_1_project", "inbound_nodes": [[["block_1_depthwise_relu", 0, 0, {}]]]}, {"class_name": "BatchNormalization", "config": {"name": "block_1_project_BN", "trainable": true, "dtype": "float32", "axis": [3], "momentum": 0.999, "epsilon": 0.001, "center": true, "scale": true, "beta_initializer": {"module": "keras.initializers", "class_name": "Zeros", "config": {}, "registered_name": null}, "gamma_initializer": {"module": "keras.initializers", "class_name": "Ones", "config": {}, "registered_name": null}, "moving_mean_initializer": {"module": "keras.initializers", "class_name": "Zeros", "config": {}, "registered_name": null}, "moving_variance_initializer": {"module": "keras.initializers", "class_name": "Ones", "config": {}, "registered_name": null}, "beta_regularizer": null, "gamma_regularizer": null, "beta_constraint": null, "gamma_constraint": null}, "name": "block_1_project_BN", "inbound_nodes": [[["block_1_project", 0, 0, {}]]]}, {"class_name": "Conv2D", "config": {"name": "block_2_expand", "trainable": true, "dtype": "float32", "filters": 144, "kernel_size": [1, 1], "strides": [1, 1], "padding": "same", "data_format": "channels_last", "dilation_rate": [1, 1], "groups": 1, "activation": "linear", "use_bias": false, "kernel_initializer": {"module": "keras.initializers", "class_name": "GlorotUniform", "config": {"seed": null}, "registered_name": null}, "bias_initializer": {"module": "keras.initializers", "class_name": "Zeros", "config": {}, "registered_name": null}, "kernel_regularizer": null, "bias_regularizer": null, "activity_regularizer": null, "kernel_constraint": null, "bias_constraint": null}, "name": "block_2_expand", "inbound_nodes": [[["block_1_project_BN", 0, 0, {}]]]}, {"class_name": "BatchNormalization", "config": {"name": "block_2_expand_BN", "trainable": true, "dtype": "float32", "axis": [3], "momentum": 0.999, "epsilon": 0.001, "center": true, "scale": true, "beta_initializer": {"module": "keras.initializers", "class_name": "Zeros", "config": {}, "registered_name": null}, "gamma_initializer": {"module": "keras.initializers", "class_name": "Ones", "config": {}, "registered_name": null}, "moving_mean_initializer": {"module": "keras.initializers", "class_name": "Zeros", "config": {}, "registered_name": null}, "moving_variance_initializer": {"module": "keras.initializers", "class_name": "Ones", "config": {}, "registered_name": null}, "beta_regularizer": null, "gamma_regularizer": null, "beta_constraint": null, "gamma_constraint": null}, "name": "block_2_expand_BN", "inbound_nodes": [[["block_2_expand", 0, 0, {}]]]}, {"class_name": "ReLU", "config": {"name": "block_2_expand_relu", "trainable": true, "dtype": "float32", "max_value": 6.0, "negative_slope": 0.0, "threshold": 0.0}, "name": "block_2_expand_relu", "inbound_nodes": [[["block_2_expand_BN", 0, 0, {}]]]}, {"class_name": "DepthwiseConv2D", "config": {"name": "block_2_depthwise", "trainable": true, "dtype": "float32", "kernel_size": [3, 3], "strides": [1, 1], "padding": "same", "data_format": "channels_last", "dilation_rate": [1, 1], "groups": 1, "activation": "linear", "use_bias": false, "bias_initializer": {"module": "keras.initializers", "class_name": "Zeros", "config": {}, "registered_name": null}, "bias_regularizer": null, "activity_regularizer": null, "bias_constraint": null, "depth_multiplier": 1, "depthwise_initializer": {"module": "keras.initializers", "class_name": "GlorotUniform", "config": {"seed": null}, "registered_name": null}, "depthwise_regularizer": null, "depthwise_constraint": null}, "name": "block_2_depthwise", "inbound_nodes": [[["block_2_expand_relu", 0, 0, {}]]]}, {"class_name": "BatchNormalization", "config": {"name": "block_2_depthwise_BN", "trainable": true, "dtype": "float32", "axis": [3], "momentum": 0.999, "epsilon": 0.001, "center": true, "scale": true, "beta_initializer": {"module": "keras.initializers", "class_name": "Zeros", "config": {}, "registered_name": null}, "gamma_initializer": {"module": "keras.initializers", "class_name": "Ones", "config": {}, "registered_name": null}, "moving_mean_initializer": {"module": "keras.initializers", "class_name": "Zeros", "config": {}, "registered_name": null}, "moving_variance_initializer": {"module": "keras.initializers", "class_name": "Ones", "config": {}, "registered_name": null}, "beta_regularizer": null, "gamma_regularizer": null, "beta_constraint": null, "gamma_constraint": null}, "name": "block_2_depthwise_BN", "inbound_nodes": [[["block_2_depthwise", 0, 0, {}]]]}, {"class_name": "ReLU", "config": {"name": "block_2_depthwise_relu", "trainable": true, "dtype": "float32", "max_value": 6.0, "negative_slope": 0.0, "threshold": 0.0}, "name": "block_2_depthwise_relu", "inbound_nodes": [[["block_2_depthwise_BN", 0, 0, {}]]]}, {"class_name": "Conv2D", "config": {"name": "block_2_project", "trainable": true, "dtype": "float32", "filters": 24, "kernel_size": [1, 1], "strides": [1, 1], "padding": "same", "data_format": "channels_last", "dilation_rate": [1, 1], "groups": 1, "activation": "linear", "use_bias": false, "kernel_initializer": {"module": "keras.initializers", "class_name": "GlorotUniform", "config": {"seed": null}, "registered_name": null}, "bias_initializer": {"module": "keras.initializers", "class_name": "Zeros", "config": {}, "registered_name": null}, "kernel_regularizer": null, "bias_regularizer": null, "activity_regularizer": null, "kernel_constraint": null, "bias_constraint": null}, "name": "block_2_project", "inbound_nodes": [[["block_2_depthwise_relu", 0, 0, {}]]]}, {"class_name": "BatchNormalization", "config": {"name": "block_2_project_BN", "trainable": true, "dtype": "float32", "axis": [3], "momentum": 0.999, "epsilon": 0.001, "center": true, "scale": true, "beta_initializer": {"module": "keras.initializers", "class_name": "Zeros", "config": {}, "registered_name": null}, "gamma_initializer": {"module": "keras.initializers", "class_name": "Ones", "config": {}, "registered_name": null}, "moving_mean_initializer": {"module": "keras.initializers", "class_name": "Zeros", "config": {}, "registered_name": null}, "moving_variance_initializer": {"module": "keras.initializers", "class_name": "Ones", "config": {}, "registered_name": null}, "beta_regularizer": null, "gamma_regularizer": null, "beta_constraint": null, "gamma_constraint": null}, "name": "block_2_project_BN", "inbound_nodes": [[["block_2_project", 0, 0, {}]]]}, {"class_name": "Add", "config": {"name": "block_2_add", "trainable": true, "dtype": "float32"}, "name": "block_2_add", "inbound_nodes": [[["block_1_project_BN", 0, 0, {}], ["block_2_project_BN", 0, 0, {}]]]}, {"class_name": "Conv2D", "config": {"name": "block_3_expand", "trainable": true, "dtype": "float32", "filters": 144, "kernel_size": [1, 1], "strides": [1, 1], "padding": "same", "data_format": "channels_last", "dilation_rate": [1, 1], "groups": 1, "activation": "linear", "use_bias": false, "kernel_initializer": {"module": "keras.initializers", "class_name": "GlorotUniform", "config": {"seed": null}, "registered_name": null}, "bias_initializer": {"module": "keras.initializers", "class_name": "Zeros", "config": {}, "registered_name": null}, "kernel_regularizer": null, "bias_regularizer": null, "activity_regularizer": null, "kernel_constraint": null, "bias_constraint": null}, "name": "block_3_expand", "inbound_nodes": [[["block_2_add", 0, 0, {}]]]}, {"class_name": "BatchNormalization", "config": {"name": "block_3_expand_BN", "trainable": true, "dtype": "float32", "axis": [3], "momentum": 0.999, "epsilon": 0.001, "center": true, "scale": true, "beta_initializer": {"module": "keras.initializers", "class_name": "Zeros", "config": {}, "registered_name": null}, "gamma_initializer": {"module": "keras.initializers", "class_name": "Ones", "config": {}, "registered_name": null}, "moving_mean_initializer": {"module": "keras.initializers", "class_name": "Zeros", "config": {}, "registered_name": null}, "moving_variance_initializer": {"module": "keras.initializers", "class_name": "Ones", "config": {}, "registered_name": null}, "beta_regularizer": null, "gamma_regularizer": null, "beta_constraint": null, "gamma_constraint": null}, "name": "block_3_expand_BN", "inbound_nodes": [[["block_3_expand", 0, 0, {}]]]}, {"class_name": "ReLU", "config": {"name": "block_3_expand_relu", "trainable": true, "dtype": "float32", "max_value": 6.0, "negative_slope": 0.0, "threshold": 0.0}, "name": "block_3_expand_relu", "inbound_nodes": [[["block_3_expand_BN", 0, 0, {}]]]}, {"class_name": "ZeroPadding2D", "config": {"name": "block_3_pad", "trainable": true, "dtype": "float32", "padding": [[0, 1], [0, 1]], "data_format": "channels_last"}, "name": "block_3_pad", "inbound_nodes": [[["block_3_expand_relu", 0, 0, {}]]]}, {"class_name": "DepthwiseConv2D", "config": {"name": "block_3_depthwise", "trainable": true, "dtype": "float32", "kernel_size": [3, 3], "strides": [2, 2], "padding": "valid", "data_format": "channels_last", "dilation_rate": [1, 1], "groups": 1, "activation": "linear", "use_bias": false, "bias_initializer": {"module": "keras.initializers", "class_name": "Zeros", "config": {}, "registered_name": null}, "bias_regularizer": null, "activity_regularizer": null, "bias_constraint": null, "depth_multiplier": 1, "depthwise_initializer": {"module": "keras.initializers", "class_name": "GlorotUniform", "config": {"seed": null}, "registered_name": null}, "depthwise_regularizer": null, "depthwise_constraint": null}, "name": "block_3_depthwise", "inbound_nodes": [[["block_3_pad", 0, 0, {}]]]}, {"class_name": "BatchNormalization", "config": {"name": "block_3_depthwise_BN", "trainable": true, "dtype": "float32", "axis": [3], "momentum": 0.999, "epsilon": 0.001, "center": true, "scale": true, "beta_initializer": {"module": "keras.initializers", "class_name": "Zeros", "config": {}, "registered_name": null}, "gamma_initializer": {"module": "keras.initializers", "class_name": "Ones", "config": {}, "registered_name": null}, "moving_mean_initializer": {"module": "keras.initializers", "class_name": "Zeros", "config": {}, "registered_name": null}, "moving_variance_initializer": {"module": "keras.initializers", "class_name": "Ones", "config": {}, "registered_name": null}, "beta_regularizer": null, "gamma_regularizer": null, "beta_constraint": null, "gamma_constraint": null}, "name": "block_3_depthwise_BN", "inbound_nodes": [[["block_3_depthwise", 0, 0, {}]]]}, {"class_name": "ReLU", "config": {"name": "block_3_depthwise_relu", "trainable": true, "dtype": "float32", "max_value": 6.0, "negative_slope": 0.0, "threshold": 0.0}, "name": "block_3_depthwise_relu", "inbound_nodes": [[["block_3_depthwise_BN", 0, 0, {}]]]}, {"class_name": "Conv2D", "config": {"name": "block_3_project", "trainable": true, "dtype": "float32", "filters": 32, "kernel_size": [1, 1], "strides": [1, 1], "padding": "same", "data_format": "channels_last", "dilation_rate": [1, 1], "groups": 1, "activation": "linear", "use_bias": false, "kernel_initializer": {"module": "keras.initializers", "class_name": "GlorotUniform", "config": {"seed": null}, "registered_name": null}, "bias_initializer": {"module": "keras.initializers", "class_name": "Zeros", "config": {}, "registered_name": null}, "kernel_regularizer": null, "bias_regularizer": null, "activity_regularizer": null, "kernel_constraint": null, "bias_constraint": null}, "name": "block_3_project", "inbound_nodes": [[["block_3_depthwise_relu", 0, 0, {}]]]}, {"class_name": "BatchNormalization", "config": {"name": "block_3_project_BN", "trainable": true, "dtype": "float32", "axis": [3], "momentum": 0.999, "epsilon": 0.001, "center": true, "scale": true, "beta_initializer": {"module": "keras.initializers", "class_name": "Zeros", "config": {}, "registered_name": null}, "gamma_initializer": {"module": "keras.initializers", "class_name": "Ones", "config": {}, "registered_name": null}, "moving_mean_initializer": {"module": "keras.initializers", "class_name": "Zeros", "config": {}, "registered_name": null}, "moving_variance_initializer": {"module": "keras.initializers", "class_name": "Ones", "config": {}, "registered_name": null}, "beta_regularizer": null, "gamma_regularizer": null, "beta_constraint": null, "gamma_constraint": null}, "name": "block_3_project_BN", "inbound_nodes": [[["block_3_project", 0, 0, {}]]]}, {"class_name": "Conv2D", "config": {"name": "block_4_expand", "trainable": true, "dtype": "float32", "filters": 192, "kernel_size": [1, 1], "strides": [1, 1], "padding": "same", "data_format": "channels_last", "dilation_rate": [1, 1], "groups": 1, "activation": "linear", "use_bias": false, "kernel_initializer": {"module": "keras.initializers", "class_name": "GlorotUniform", "config": {"seed": null}, "registered_name": null}, "bias_initializer": {"module": "keras.initializers", "class_name": "Zeros", "config": {}, "registered_name": null}, "kernel_regularizer": null, "bias_regularizer": null, "activity_regularizer": null, "kernel_constraint": null, "bias_constraint": null}, "name": "block_4_expand", "inbound_nodes": [[["block_3_project_BN", 0, 0, {}]]]}, {"class_name": "BatchNormalization", "config": {"name": "block_4_expand_BN", "trainable": true, "dtype": "float32", "axis": [3], "momentum": 0.999, "epsilon": 0.001, "center": true, "scale": true, "beta_initializer": {"module": "keras.initializers", "class_name": "Zeros", "config": {}, "registered_name": null}, "gamma_initializer": {"module": "keras.initializers", "class_name": "Ones", "config": {}, "registered_name": null}, "moving_mean_initializer": {"module": "keras.initializers", "class_name": "Zeros", "config": {}, "registered_name": null}, "moving_variance_initializer": {"module": "keras.initializers", "class_name": "Ones", "config": {}, "registered_name": null}, "beta_regularizer": null, "gamma_regularizer": null, "beta_constraint": null, "gamma_constraint": null}, "name": "block_4_expand_BN", "inbound_nodes": [[["block_4_expand", 0, 0, {}]]]}, {"class_name": "ReLU", "config": {"name": "block_4_expand_relu", "trainable": true, "dtype": "float32", "max_value": 6.0, "negative_slope": 0.0, "threshold": 0.0}, "name": "block_4_expand_relu", "inbound_nodes": [[["block_4_expand_BN", 0, 0, {}]]]}, {"class_name": "DepthwiseConv2D", "config": {"name": "block_4_depthwise", "trainable": true, "dtype": "float32", "kernel_size": [3, 3], "strides": [1, 1], "padding": "same", "data_format": "channels_last", "dilation_rate": [1, 1], "groups": 1, "activation": "linear", "use_bias": false, "bias_initializer": {"module": "keras.initializers", "class_name": "Zeros", "config": {}, "registered_name": null}, "bias_regularizer": null, "activity_regularizer": null, "bias_constraint": null, "depth_multiplier": 1, "depthwise_initializer": {"module": "keras.initializers", "class_name": "GlorotUniform", "config": {"seed": null}, "registered_name": null}, "depthwise_regularizer": null, "depthwise_constraint": null}, "name": "block_4_depthwise", "inbound_nodes": [[["block_4_expand_relu", 0, 0, {}]]]}, {"class_name": "BatchNormalization", "config": {"name": "block_4_depthwise_BN", "trainable": true, "dtype": "float32", "axis": [3], "momentum": 0.999, "epsilon": 0.001, "center": true, "scale": true, "beta_initializer": {"module": "keras.initializers", "class_name": "Zeros", "config": {}, "registered_name": null}, "gamma_initializer": {"module": "keras.initializers", "class_name": "Ones", "config": {}, "registered_name": null}, "moving_mean_initializer": {"module": "keras.initializers", "class_name": "Zeros", "config": {}, "registered_name": null}, "moving_variance_initializer": {"module": "keras.initializers", "class_name": "Ones", "config": {}, "registered_name": null}, "beta_regularizer": null, "gamma_regularizer": null, "beta_constraint": null, "gamma_constraint": null}, "name": "block_4_depthwise_BN", "inbound_nodes": [[["block_4_depthwise", 0, 0, {}]]]}, {"class_name": "ReLU", "config": {"name": "block_4_depthwise_relu", "trainable": true, "dtype": "float32", "max_value": 6.0, "negative_slope": 0.0, "threshold": 0.0}, "name": "block_4_depthwise_relu", "inbound_nodes": [[["block_4_depthwise_BN", 0, 0, {}]]]}, {"class_name": "Conv2D", "config": {"name": "block_4_project", "trainable": true, "dtype": "float32", "filters": 32, "kernel_size": [1, 1], "strides": [1, 1], "padding": "same", "data_format": "channels_last", "dilation_rate": [1, 1], "groups": 1, "activation": "linear", "use_bias": false, "kernel_initializer": {"module": "keras.initializers", "class_name": "GlorotUniform", "config": {"seed": null}, "registered_name": null}, "bias_initializer": {"module": "keras.initializers", "class_name": "Zeros", "config": {}, "registered_name": null}, "kernel_regularizer": null, "bias_regularizer": null, "activity_regularizer": null, "kernel_constraint": null, "bias_constraint": null}, "name": "block_4_project", "inbound_nodes": [[["block_4_depthwise_relu", 0, 0, {}]]]}, {"class_name": "BatchNormalization", "config": {"name": "block_4_project_BN", "trainable": true, "dtype": "float32", "axis": [3], "momentum": 0.999, "epsilon": 0.001, "center": true, "scale": true, "beta_initializer": {"module": "keras.initializers", "class_name": "Zeros", "config": {}, "registered_name": null}, "gamma_initializer": {"module": "keras.initializers", "class_name": "Ones", "config": {}, "registered_name": null}, "moving_mean_initializer": {"module": "keras.initializers", "class_name": "Zeros", "config": {}, "registered_name": null}, "moving_variance_initializer": {"module": "keras.initializers", "class_name": "Ones", "config": {}, "registered_name": null}, "beta_regularizer": null, "gamma_regularizer": null, "beta_constraint": null, "gamma_constraint": null}, "name": "block_4_project_BN", "inbound_nodes": [[["block_4_project", 0, 0, {}]]]}, {"class_name": "Add", "config": {"name": "block_4_add", "trainable": true, "dtype": "float32"}, "name": "block_4_add", "inbound_nodes": [[["block_3_project_BN", 0, 0, {}], ["block_4_project_BN", 0, 0, {}]]]}, {"class_name": "Conv2D", "config": {"name": "block_5_expand", "trainable": true, "dtype": "float32", "filters": 192, "kernel_size": [1, 1], "strides": [1, 1], "padding": "same", "data_format": "channels_last", "dilation_rate": [1, 1], "groups": 1, "activation": "linear", "use_bias": false, "kernel_initializer": {"module": "keras.initializers", "class_name": "GlorotUniform", "config": {"seed": null}, "registered_name": null}, "bias_initializer": {"module": "keras.initializers", "class_name": "Zeros", "config": {}, "registered_name": null}, "kernel_regularizer": null, "bias_regularizer": null, "activity_regularizer": null, "kernel_constraint": null, "bias_constraint": null}, "name": "block_5_expand", "inbound_nodes": [[["block_4_add", 0, 0, {}]]]}, {"class_name": "BatchNormalization", "config": {"name": "block_5_expand_BN", "trainable": true, "dtype": "float32", "axis": [3], "momentum": 0.999, "epsilon": 0.001, "center": true, "scale": true, "beta_initializer": {"module": "keras.initializers", "class_name": "Zeros", "config": {}, "registered_name": null}, "gamma_initializer": {"module": "keras.initializers", "class_name": "Ones", "config": {}, "registered_name": null}, "moving_mean_initializer": {"module": "keras.initializers", "class_name": "Zeros", "config": {}, "registered_name": null}, "moving_variance_initializer": {"module": "keras.initializers", "class_name": "Ones", "config": {}, "registered_name": null}, "beta_regularizer": null, "gamma_regularizer": null, "beta_constraint": null, "gamma_constraint": null}, "name": "block_5_expand_BN", "inbound_nodes": [[["block_5_expand", 0, 0, {}]]]}, {"class_name": "ReLU", "config": {"name": "block_5_expand_relu", "trainable": true, "dtype": "float32", "max_value": 6.0, "negative_slope": 0.0, "threshold": 0.0}, "name": "block_5_expand_relu", "inbound_nodes": [[["block_5_expand_BN", 0, 0, {}]]]}, {"class_name": "DepthwiseConv2D", "config": {"name": "block_5_depthwise", "trainable": true, "dtype": "float32", "kernel_size": [3, 3], "strides": [1, 1], "padding": "same", "data_format": "channels_last", "dilation_rate": [1, 1], "groups": 1, "activation": "linear", "use_bias": false, "bias_initializer": {"module": "keras.initializers", "class_name": "Zeros", "config": {}, "registered_name": null}, "bias_regularizer": null, "activity_regularizer": null, "bias_constraint": null, "depth_multiplier": 1, "depthwise_initializer": {"module": "keras.initializers", "class_name": "GlorotUniform", "config": {"seed": null}, "registered_name": null}, "depthwise_regularizer": null, "depthwise_constraint": null}, "name": "block_5_depthwise", "inbound_nodes": [[["block_5_expand_relu", 0, 0, {}]]]}, {"class_name": "BatchNormalization", "config": {"name": "block_5_depthwise_BN", "trainable": true, "dtype": "float32", "axis": [3], "momentum": 0.999, "epsilon": 0.001, "center": true, "scale": true, "beta_initializer": {"module": "keras.initializers", "class_name": "Zeros", "config": {}, "registered_name": null}, "gamma_initializer": {"module": "keras.initializers", "class_name": "Ones", "config": {}, "registered_name": null}, "moving_mean_initializer": {"module": "keras.initializers", "class_name": "Zeros", "config": {}, "registered_name": null}, "moving_variance_initializer": {"module": "keras.initializers", "class_name": "Ones", "config": {}, "registered_name": null}, "beta_regularizer": null, "gamma_regularizer": null, "beta_constraint": null, "gamma_constraint": null}, "name": "block_5_depthwise_BN", "inbound_nodes": [[["block_5_depthwise", 0, 0, {}]]]}, {"class_name": "ReLU", "config": {"name": "block_5_depthwise_relu", "trainable": true, "dtype": "float32", "max_value": 6.0, "negative_slope": 0.0, "threshold": 0.0}, "name": "block_5_depthwise_relu", "inbound_nodes": [[["block_5_depthwise_BN", 0, 0, {}]]]}, {"class_name": "Conv2D", "config": {"name": "block_5_project", "trainable": true, "dtype": "float32", "filters": 32, "kernel_size": [1, 1], "strides": [1, 1], "padding": "same", "data_format": "channels_last", "dilation_rate": [1, 1], "groups": 1, "activation": "linear", "use_bias": false, "kernel_initializer": {"module": "keras.initializers", "class_name": "GlorotUniform", "config": {"seed": null}, "registered_name": null}, "bias_initializer": {"module": "keras.initializers", "class_name": "Zeros", "config": {}, "registered_name": null}, "kernel_regularizer": null, "bias_regularizer": null, "activity_regularizer": null, "kernel_constraint": null, "bias_constraint": null}, "name": "block_5_project", "inbound_nodes": [[["block_5_depthwise_relu", 0, 0, {}]]]}, {"class_name": "BatchNormalization", "config": {"name": "block_5_project_BN", "trainable": true, "dtype": "float32", "axis": [3], "momentum": 0.999, "epsilon": 0.001, "center": true, "scale": true, "beta_initializer": {"module": "keras.initializers", "class_name": "Zeros", "config": {}, "registered_name": null}, "gamma_initializer": {"module": "keras.initializers", "class_name": "Ones", "config": {}, "registered_name": null}, "moving_mean_initializer": {"module": "keras.initializers", "class_name": "Zeros", "config": {}, "registered_name": null}, "moving_variance_initializer": {"module": "keras.initializers", "class_name": "Ones", "config": {}, "registered_name": null}, "beta_regularizer": null, "gamma_regularizer": null, "beta_constraint": null, "gamma_constraint": null}, "name": "block_5_project_BN", "inbound_nodes": [[["block_5_project", 0, 0, {}]]]}, {"class_name": "Add", "config": {"name": "block_5_add", "trainable": true, "dtype": "float32"}, "name": "block_5_add", "inbound_nodes": [[["block_4_add", 0, 0, {}], ["block_5_project_BN", 0, 0, {}]]]}, {"class_name": "Conv2D", "config": {"name": "block_6_expand", "trainable": true, "dtype": "float32", "filters": 192, "kernel_size": [1, 1], "strides": [1, 1], "padding": "same", "data_format": "channels_last", "dilation_rate": [1, 1], "groups": 1, "activation": "linear", "use_bias": false, "kernel_initializer": {"module": "keras.initializers", "class_name": "GlorotUniform", "config": {"seed": null}, "registered_name": null}, "bias_initializer": {"module": "keras.initializers", "class_name": "Zeros", "config": {}, "registered_name": null}, "kernel_regularizer": null, "bias_regularizer": null, "activity_regularizer": null, "kernel_constraint": null, "bias_constraint": null}, "name": "block_6_expand", "inbound_nodes": [[["block_5_add", 0, 0, {}]]]}, {"class_name": "BatchNormalization", "config": {"name": "block_6_expand_BN", "trainable": true, "dtype": "float32", "axis": [3], "momentum": 0.999, "epsilon": 0.001, "center": true, "scale": true, "beta_initializer": {"module": "keras.initializers", "class_name": "Zeros", "config": {}, "registered_name": null}, "gamma_initializer": {"module": "keras.initializers", "class_name": "Ones", "config": {}, "registered_name": null}, "moving_mean_initializer": {"module": "keras.initializers", "class_name": "Zeros", "config": {}, "registered_name": null}, "moving_variance_initializer": {"module": "keras.initializers", "class_name": "Ones", "config": {}, "registered_name": null}, "beta_regularizer": null, "gamma_regularizer": null, "beta_constraint": null, "gamma_constraint": null}, "name": "block_6_expand_BN", "inbound_nodes": [[["block_6_expand", 0, 0, {}]]]}, {"class_name": "ReLU", "config": {"name": "block_6_expand_relu", "trainable": true, "dtype": "float32", "max_value": 6.0, "negative_slope": 0.0, "threshold": 0.0}, "name": "block_6_expand_relu", "inbound_nodes": [[["block_6_expand_BN", 0, 0, {}]]]}, {"class_name": "ZeroPadding2D", "config": {"name": "block_6_pad", "trainable": true, "dtype": "float32", "padding": [[0, 1], [0, 1]], "data_format": "channels_last"}, "name": "block_6_pad", "inbound_nodes": [[["block_6_expand_relu", 0, 0, {}]]]}, {"class_name": "DepthwiseConv2D", "config": {"name": "block_6_depthwise", "trainable": true, "dtype": "float32", "kernel_size": [3, 3], "strides": [2, 2], "padding": "valid", "data_format": "channels_last", "dilation_rate": [1, 1], "groups": 1, "activation": "linear", "use_bias": false, "bias_initializer": {"module": "keras.initializers", "class_name": "Zeros", "config": {}, "registered_name": null}, "bias_regularizer": null, "activity_regularizer": null, "bias_constraint": null, "depth_multiplier": 1, "depthwise_initializer": {"module": "keras.initializers", "class_name": "GlorotUniform", "config": {"seed": null}, "registered_name": null}, "depthwise_regularizer": null, "depthwise_constraint": null}, "name": "block_6_depthwise", "inbound_nodes": [[["block_6_pad", 0, 0, {}]]]}, {"class_name": "BatchNormalization", "config": {"name": "block_6_depthwise_BN", "trainable": true, "dtype": "float32", "axis": [3], "momentum": 0.999, "epsilon": 0.001, "center": true, "scale": true, "beta_initializer": {"module": "keras.initializers", "class_name": "Zeros", "config": {}, "registered_name": null}, "gamma_initializer": {"module": "keras.initializers", "class_name": "Ones", "config": {}, "registered_name": null}, "moving_mean_initializer": {"module": "keras.initializers", "class_name": "Zeros", "config": {}, "registered_name": null}, "moving_variance_initializer": {"module": "keras.initializers", "class_name": "Ones", "config": {}, "registered_name": null}, "beta_regularizer": null, "gamma_regularizer": null, "beta_constraint": null, "gamma_constraint": null}, "name": "block_6_depthwise_BN", "inbound_nodes": [[["block_6_depthwise", 0, 0, {}]]]}, {"class_name": "ReLU", "config": {"name": "block_6_depthwise_relu", "trainable": true, "dtype": "float32", "max_value": 6.0, "negative_slope": 0.0, "threshold": 0.0}, "name": "block_6_depthwise_relu", "inbound_nodes": [[["block_6_depthwise_BN", 0, 0, {}]]]}, {"class_name": "Conv2D", "config": {"name": "block_6_project", "trainable": true, "dtype": "float32", "filters": 64, "kernel_size": [1, 1], "strides": [1, 1], "padding": "same", "data_format": "channels_last", "dilation_rate": [1, 1], "groups": 1, "activation": "linear", "use_bias": false, "kernel_initializer": {"module": "keras.initializers", "class_name": "GlorotUniform", "config": {"seed": null}, "registered_name": null}, "bias_initializer": {"module": "keras.initializers", "class_name": "Zeros", "config": {}, "registered_name": null}, "kernel_regularizer": null, "bias_regularizer": null, "activity_regularizer": null, "kernel_constraint": null, "bias_constraint": null}, "name": "block_6_project", "inbound_nodes": [[["block_6_depthwise_relu", 0, 0, {}]]]}, {"class_name": "BatchNormalization", "config": {"name": "block_6_project_BN", "trainable": true, "dtype": "float32", "axis": [3], "momentum": 0.999, "epsilon": 0.001, "center": true, "scale": true, "beta_initializer": {"module": "keras.initializers", "class_name": "Zeros", "config": {}, "registered_name": null}, "gamma_initializer": {"module": "keras.initializers", "class_name": "Ones", "config": {}, "registered_name": null}, "moving_mean_initializer": {"module": "keras.initializers", "class_name": "Zeros", "config": {}, "registered_name": null}, "moving_variance_initializer": {"module": "keras.initializers", "class_name": "Ones", "config": {}, "registered_name": null}, "beta_regularizer": null, "gamma_regularizer": null, "beta_constraint": null, "gamma_constraint": null}, "name": "block_6_project_BN", "inbound_nodes": [[["block_6_project", 0, 0, {}]]]}, {"class_name": "Conv2D", "config": {"name": "block_7_expand", "trainable": true, "dtype": "float32", "filters": 384, "kernel_size": [1, 1], "strides": [1, 1], "padding": "same", "data_format": "channels_last", "dilation_rate": [1, 1], "groups": 1, "activation": "linear", "use_bias": false, "kernel_initializer": {"module": "keras.initializers", "class_name": "GlorotUniform", "config": {"seed": null}, "registered_name": null}, "bias_initializer": {"module": "keras.initializers", "class_name": "Zeros", "config": {}, "registered_name": null}, "kernel_regularizer": null, "bias_regularizer": null, "activity_regularizer": null, "kernel_constraint": null, "bias_constraint": null}, "name": "block_7_expand", "inbound_nodes": [[["block_6_project_BN", 0, 0, {}]]]}, {"class_name": "BatchNormalization", "config": {"name": "block_7_expand_BN", "trainable": true, "dtype": "float32", "axis": [3], "momentum": 0.999, "epsilon": 0.001, "center": true, "scale": true, "beta_initializer": {"module": "keras.initializers", "class_name": "Zeros", "config": {}, "registered_name": null}, "gamma_initializer": {"module": "keras.initializers", "class_name": "Ones", "config": {}, "registered_name": null}, "moving_mean_initializer": {"module": "keras.initializers", "class_name": "Zeros", "config": {}, "registered_name": null}, "moving_variance_initializer": {"module": "keras.initializers", "class_name": "Ones", "config": {}, "registered_name": null}, "beta_regularizer": null, "gamma_regularizer": null, "beta_constraint": null, "gamma_constraint": null}, "name": "block_7_expand_BN", "inbound_nodes": [[["block_7_expand", 0, 0, {}]]]}, {"class_name": "ReLU", "config": {"name": "block_7_expand_relu", "trainable": true, "dtype": "float32", "max_value": 6.0, "negative_slope": 0.0, "threshold": 0.0}, "name": "block_7_expand_relu", "inbound_nodes": [[["block_7_expand_BN", 0, 0, {}]]]}, {"class_name": "DepthwiseConv2D", "config": {"name": "block_7_depthwise", "trainable": true, "dtype": "float32", "kernel_size": [3, 3], "strides": [1, 1], "padding": "same", "data_format": "channels_last", "dilation_rate": [1, 1], "groups": 1, "activation": "linear", "use_bias": false, "bias_initializer": {"module": "keras.initializers", "class_name": "Zeros", "config": {}, "registered_name": null}, "bias_regularizer": null, "activity_regularizer": null, "bias_constraint": null, "depth_multiplier": 1, "depthwise_initializer": {"module": "keras.initializers", "class_name": "GlorotUniform", "config": {"seed": null}, "registered_name": null}, "depthwise_regularizer": null, "depthwise_constraint": null}, "name": "block_7_depthwise", "inbound_nodes": [[["block_7_expand_relu", 0, 0, {}]]]}, {"class_name": "BatchNormalization", "config": {"name": "block_7_depthwise_BN", "trainable": true, "dtype": "float32", "axis": [3], "momentum": 0.999, "epsilon": 0.001, "center": true, "scale": true, "beta_initializer": {"module": "keras.initializers", "class_name": "Zeros", "config": {}, "registered_name": null}, "gamma_initializer": {"module": "keras.initializers", "class_name": "Ones", "config": {}, "registered_name": null}, "moving_mean_initializer": {"module": "keras.initializers", "class_name": "Zeros", "config": {}, "registered_name": null}, "moving_variance_initializer": {"module": "keras.initializers", "class_name": "Ones", "config": {}, "registered_name": null}, "beta_regularizer": null, "gamma_regularizer": null, "beta_constraint": null, "gamma_constraint": null}, "name": "block_7_depthwise_BN", "inbound_nodes": [[["block_7_depthwise", 0, 0, {}]]]}, {"class_name": "ReLU", "config": {"name": "block_7_depthwise_relu", "trainable": true, "dtype": "float32", "max_value": 6.0, "negative_slope": 0.0, "threshold": 0.0}, "name": "block_7_depthwise_relu", "inbound_nodes": [[["block_7_depthwise_BN", 0, 0, {}]]]}, {"class_name": "Conv2D", "config": {"name": "block_7_project", "trainable": true, "dtype": "float32", "filters": 64, "kernel_size": [1, 1], "strides": [1, 1], "padding": "same", "data_format": "channels_last", "dilation_rate": [1, 1], "groups": 1, "activation": "linear", "use_bias": false, "kernel_initializer": {"module": "keras.initializers", "class_name": "GlorotUniform", "config": {"seed": null}, "registered_name": null}, "bias_initializer": {"module": "keras.initializers", "class_name": "Zeros", "config": {}, "registered_name": null}, "kernel_regularizer": null, "bias_regularizer": null, "activity_regularizer": null, "kernel_constraint": null, "bias_constraint": null}, "name": "block_7_project", "inbound_nodes": [[["block_7_depthwise_relu", 0, 0, {}]]]}, {"class_name": "BatchNormalization", "config": {"name": "block_7_project_BN", "trainable": true, "dtype": "float32", "axis": [3], "momentum": 0.999, "epsilon": 0.001, "center": true, "scale": true, "beta_initializer": {"module": "keras.initializers", "class_name": "Zeros", "config": {}, "registered_name": null}, "gamma_initializer": {"module": "keras.initializers", "class_name": "Ones", "config": {}, "registered_name": null}, "moving_mean_initializer": {"module": "keras.initializers", "class_name": "Zeros", "config": {}, "registered_name": null}, "moving_variance_initializer": {"module": "keras.initializers", "class_name": "Ones", "config": {}, "registered_name": null}, "beta_regularizer": null, "gamma_regularizer": null, "beta_constraint": null, "gamma_constraint": null}, "name": "block_7_project_BN", "inbound_nodes": [[["block_7_project", 0, 0, {}]]]}, {"class_name": "Add", "config": {"name": "block_7_add", "trainable": true, "dtype": "float32"}, "name": "block_7_add", "inbound_nodes": [[["block_6_project_BN", 0, 0, {}], ["block_7_project_BN", 0, 0, {}]]]}, {"class_name": "Conv2D", "config": {"name": "block_8_expand", "trainable": true, "dtype": "float32", "filters": 384, "kernel_size": [1, 1], "strides": [1, 1], "padding": "same", "data_format": "channels_last", "dilation_rate": [1, 1], "groups": 1, "activation": "linear", "use_bias": false, "kernel_initializer": {"module": "keras.initializers", "class_name": "GlorotUniform", "config": {"seed": null}, "registered_name": null}, "bias_initializer": {"module": "keras.initializers", "class_name": "Zeros", "config": {}, "registered_name": null}, "kernel_regularizer": null, "bias_regularizer": null, "activity_regularizer": null, "kernel_constraint": null, "bias_constraint": null}, "name": "block_8_expand", "inbound_nodes": [[["block_7_add", 0, 0, {}]]]}, {"class_name": "BatchNormalization", "config": {"name": "block_8_expand_BN", "trainable": true, "dtype": "float32", "axis": [3], "momentum": 0.999, "epsilon": 0.001, "center": true, "scale": true, "beta_initializer": {"module": "keras.initializers", "class_name": "Zeros", "config": {}, "registered_name": null}, "gamma_initializer": {"module": "keras.initializers", "class_name": "Ones", "config": {}, "registered_name": null}, "moving_mean_initializer": {"module": "keras.initializers", "class_name": "Zeros", "config": {}, "registered_name": null}, "moving_variance_initializer": {"module": "keras.initializers", "class_name": "Ones", "config": {}, "registered_name": null}, "beta_regularizer": null, "gamma_regularizer": null, "beta_constraint": null, "gamma_constraint": null}, "name": "block_8_expand_BN", "inbound_nodes": [[["block_8_expand", 0, 0, {}]]]}, {"class_name": "ReLU", "config": {"name": "block_8_expand_relu", "trainable": true, "dtype": "float32", "max_value": 6.0, "negative_slope": 0.0, "threshold": 0.0}, "name": "block_8_expand_relu", "inbound_nodes": [[["block_8_expand_BN", 0, 0, {}]]]}, {"class_name": "DepthwiseConv2D", "config": {"name": "block_8_depthwise", "trainable": true, "dtype": "float32", "kernel_size": [3, 3], "strides": [1, 1], "padding": "same", "data_format": "channels_last", "dilation_rate": [1, 1], "groups": 1, "activation": "linear", "use_bias": false, "bias_initializer": {"module": "keras.initializers", "class_name": "Zeros", "config": {}, "registered_name": null}, "bias_regularizer": null, "activity_regularizer": null, "bias_constraint": null, "depth_multiplier": 1, "depthwise_initializer": {"module": "keras.initializers", "class_name": "GlorotUniform", "config": {"seed": null}, "registered_name": null}, "depthwise_regularizer": null, "depthwise_constraint": null}, "name": "block_8_depthwise", "inbound_nodes": [[["block_8_expand_relu", 0, 0, {}]]]}, {"class_name": "BatchNormalization", "config": {"name": "block_8_depthwise_BN", "trainable": true, "dtype": "float32", "axis": [3], "momentum": 0.999, "epsilon": 0.001, "center": true, "scale": true, "beta_initializer": {"module": "keras.initializers", "class_name": "Zeros", "config": {}, "registered_name": null}, "gamma_initializer": {"module": "keras.initializers", "class_name": "Ones", "config": {}, "registered_name": null}, "moving_mean_initializer": {"module": "keras.initializers", "class_name": "Zeros", "config": {}, "registered_name": null}, "moving_variance_initializer": {"module": "keras.initializers", "class_name": "Ones", "config": {}, "registered_name": null}, "beta_regularizer": null, "gamma_regularizer": null, "beta_constraint": null, "gamma_constraint": null}, "name": "block_8_depthwise_BN", "inbound_nodes": [[["block_8_depthwise", 0, 0, {}]]]}, {"class_name": "ReLU", "config": {"name": "block_8_depthwise_relu", "trainable": true, "dtype": "float32", "max_value": 6.0, "negative_slope": 0.0, "threshold": 0.0}, "name": "block_8_depthwise_relu", "inbound_nodes": [[["block_8_depthwise_BN", 0, 0, {}]]]}, {"class_name": "Conv2D", "config": {"name": "block_8_project", "trainable": true, "dtype": "float32", "filters": 64, "kernel_size": [1, 1], "strides": [1, 1], "padding": "same", "data_format": "channels_last", "dilation_rate": [1, 1], "groups": 1, "activation": "linear", "use_bias": false, "kernel_initializer": {"module": "keras.initializers", "class_name": "GlorotUniform", "config": {"seed": null}, "registered_name": null}, "bias_initializer": {"module": "keras.initializers", "class_name": "Zeros", "config": {}, "registered_name": null}, "kernel_regularizer": null, "bias_regularizer": null, "activity_regularizer": null, "kernel_constraint": null, "bias_constraint": null}, "name": "block_8_project", "inbound_nodes": [[["block_8_depthwise_relu", 0, 0, {}]]]}, {"class_name": "BatchNormalization", "config": {"name": "block_8_project_BN", "trainable": true, "dtype": "float32", "axis": [3], "momentum": 0.999, "epsilon": 0.001, "center": true, "scale": true, "beta_initializer": {"module": "keras.initializers", "class_name": "Zeros", "config": {}, "registered_name": null}, "gamma_initializer": {"module": "keras.initializers", "class_name": "Ones", "config": {}, "registered_name": null}, "moving_mean_initializer": {"module": "keras.initializers", "class_name": "Zeros", "config": {}, "registered_name": null}, "moving_variance_initializer": {"module": "keras.initializers", "class_name": "Ones", "config": {}, "registered_name": null}, "beta_regularizer": null, "gamma_regularizer": null, "beta_constraint": null, "gamma_constraint": null}, "name": "block_8_project_BN", "inbound_nodes": [[["block_8_project", 0, 0, {}]]]}, {"class_name": "Add", "config": {"name": "block_8_add", "trainable": true, "dtype": "float32"}, "name": "block_8_add", "inbound_nodes": [[["block_7_add", 0, 0, {}], ["block_8_project_BN", 0, 0, {}]]]}, {"class_name": "Conv2D", "config": {"name": "block_9_expand", "trainable": true, "dtype": "float32", "filters": 384, "kernel_size": [1, 1], "strides": [1, 1], "padding": "same", "data_format": "channels_last", "dilation_rate": [1, 1], "groups": 1, "activation": "linear", "use_bias": false, "kernel_initializer": {"module": "keras.initializers", "class_name": "GlorotUniform", "config": {"seed": null}, "registered_name": null}, "bias_initializer": {"module": "keras.initializers", "class_name": "Zeros", "config": {}, "registered_name": null}, "kernel_regularizer": null, "bias_regularizer": null, "activity_regularizer": null, "kernel_constraint": null, "bias_constraint": null}, "name": "block_9_expand", "inbound_nodes": [[["block_8_add", 0, 0, {}]]]}, {"class_name": "BatchNormalization", "config": {"name": "block_9_expand_BN", "trainable": true, "dtype": "float32", "axis": [3], "momentum": 0.999, "epsilon": 0.001, "center": true, "scale": true, "beta_initializer": {"module": "keras.initializers", "class_name": "Zeros", "config": {}, "registered_name": null}, "gamma_initializer": {"module": "keras.initializers", "class_name": "Ones", "config": {}, "registered_name": null}, "moving_mean_initializer": {"module": "keras.initializers", "class_name": "Zeros", "config": {}, "registered_name": null}, "moving_variance_initializer": {"module": "keras.initializers", "class_name": "Ones", "config": {}, "registered_name": null}, "beta_regularizer": null, "gamma_regularizer": null, "beta_constraint": null, "gamma_constraint": null}, "name": "block_9_expand_BN", "inbound_nodes": [[["block_9_expand", 0, 0, {}]]]}, {"class_name": "ReLU", "config": {"name": "block_9_expand_relu", "trainable": true, "dtype": "float32", "max_value": 6.0, "negative_slope": 0.0, "threshold": 0.0}, "name": "block_9_expand_relu", "inbound_nodes": [[["block_9_expand_BN", 0, 0, {}]]]}, {"class_name": "DepthwiseConv2D", "config": {"name": "block_9_depthwise", "trainable": true, "dtype": "float32", "kernel_size": [3, 3], "strides": [1, 1], "padding": "same", "data_format": "channels_last", "dilation_rate": [1, 1], "groups": 1, "activation": "linear", "use_bias": false, "bias_initializer": {"module": "keras.initializers", "class_name": "Zeros", "config": {}, "registered_name": null}, "bias_regularizer": null, "activity_regularizer": null, "bias_constraint": null, "depth_multiplier": 1, "depthwise_initializer": {"module": "keras.initializers", "class_name": "GlorotUniform", "config": {"seed": null}, "registered_name": null}, "depthwise_regularizer": null, "depthwise_constraint": null}, "name": "block_9_depthwise", "inbound_nodes": [[["block_9_expand_relu", 0, 0, {}]]]}, {"class_name": "BatchNormalization", "config": {"name": "block_9_depthwise_BN", "trainable": true, "dtype": "float32", "axis": [3], "momentum": 0.999, "epsilon": 0.001, "center": true, "scale": true, "beta_initializer": {"module": "keras.initializers", "class_name": "Zeros", "config": {}, "registered_name": null}, "gamma_initializer": {"module": "keras.initializers", "class_name": "Ones", "config": {}, "registered_name": null}, "moving_mean_initializer": {"module": "keras.initializers", "class_name": "Zeros", "config": {}, "registered_name": null}, "moving_variance_initializer": {"module": "keras.initializers", "class_name": "Ones", "config": {}, "registered_name": null}, "beta_regularizer": null, "gamma_regularizer": null, "beta_constraint": null, "gamma_constraint": null}, "name": "block_9_depthwise_BN", "inbound_nodes": [[["block_9_depthwise", 0, 0, {}]]]}, {"class_name": "ReLU", "config": {"name": "block_9_depthwise_relu", "trainable": true, "dtype": "float32", "max_value": 6.0, "negative_slope": 0.0, "threshold": 0.0}, "name": "block_9_depthwise_relu", "inbound_nodes": [[["block_9_depthwise_BN", 0, 0, {}]]]}, {"class_name": "Conv2D", "config": {"name": "block_9_project", "trainable": true, "dtype": "float32", "filters": 64, "kernel_size": [1, 1], "strides": [1, 1], "padding": "same", "data_format": "channels_last", "dilation_rate": [1, 1], "groups": 1, "activation": "linear", "use_bias": false, "kernel_initializer": {"module": "keras.initializers", "class_name": "GlorotUniform", "config": {"seed": null}, "registered_name": null}, "bias_initializer": {"module": "keras.initializers", "class_name": "Zeros", "config": {}, "registered_name": null}, "kernel_regularizer": null, "bias_regularizer": null, "activity_regularizer": null, "kernel_constraint": null, "bias_constraint": null}, "name": "block_9_project", "inbound_nodes": [[["block_9_depthwise_relu", 0, 0, {}]]]}, {"class_name": "BatchNormalization", "config": {"name": "block_9_project_BN", "trainable": true, "dtype": "float32", "axis": [3], "momentum": 0.999, "epsilon": 0.001, "center": true, "scale": true, "beta_initializer": {"module": "keras.initializers", "class_name": "Zeros", "config": {}, "registered_name": null}, "gamma_initializer": {"module": "keras.initializers", "class_name": "Ones", "config": {}, "registered_name": null}, "moving_mean_initializer": {"module": "keras.initializers", "class_name": "Zeros", "config": {}, "registered_name": null}, "moving_variance_initializer": {"module": "keras.initializers", "class_name": "Ones", "config": {}, "registered_name": null}, "beta_regularizer": null, "gamma_regularizer": null, "beta_constraint": null, "gamma_constraint": null}, "name": "block_9_project_BN", "inbound_nodes": [[["block_9_project", 0, 0, {}]]]}, {"class_name": "Add", "config": {"name": "block_9_add", "trainable": true, "dtype": "float32"}, "name": "block_9_add", "inbound_nodes": [[["block_8_add", 0, 0, {}], ["block_9_project_BN", 0, 0, {}]]]}, {"class_name": "Conv2D", "config": {"name": "block_10_expand", "trainable": true, "dtype": "float32", "filters": 384, "kernel_size": [1, 1], "strides": [1, 1], "padding": "same", "data_format": "channels_last", "dilation_rate": [1, 1], "groups": 1, "activation": "linear", "use_bias": false, "kernel_initializer": {"module": "keras.initializers", "class_name": "GlorotUniform", "config": {"seed": null}, "registered_name": null}, "bias_initializer": {"module": "keras.initializers", "class_name": "Zeros", "config": {}, "registered_name": null}, "kernel_regularizer": null, "bias_regularizer": null, "activity_regularizer": null, "kernel_constraint": null, "bias_constraint": null}, "name": "block_10_expand", "inbound_nodes": [[["block_9_add", 0, 0, {}]]]}, {"class_name": "BatchNormalization", "config": {"name": "block_10_expand_BN", "trainable": true, "dtype": "float32", "axis": [3], "momentum": 0.999, "epsilon": 0.001, "center": true, "scale": true, "beta_initializer": {"module": "keras.initializers", "class_name": "Zeros", "config": {}, "registered_name": null}, "gamma_initializer": {"module": "keras.initializers", "class_name": "Ones", "config": {}, "registered_name": null}, "moving_mean_initializer": {"module": "keras.initializers", "class_name": "Zeros", "config": {}, "registered_name": null}, "moving_variance_initializer": {"module": "keras.initializers", "class_name": "Ones", "config": {}, "registered_name": null}, "beta_regularizer": null, "gamma_regularizer": null, "beta_constraint": null, "gamma_constraint": null}, "name": "block_10_expand_BN", "inbound_nodes": [[["block_10_expand", 0, 0, {}]]]}, {"class_name": "ReLU", "config": {"name": "block_10_expand_relu", "trainable": true, "dtype": "float32", "max_value": 6.0, "negative_slope": 0.0, "threshold": 0.0}, "name": "block_10_expand_relu", "inbound_nodes": [[["block_10_expand_BN", 0, 0, {}]]]}, {"class_name": "DepthwiseConv2D", "config": {"name": "block_10_depthwise", "trainable": true, "dtype": "float32", "kernel_size": [3, 3], "strides": [1, 1], "padding": "same", "data_format": "channels_last", "dilation_rate": [1, 1], "groups": 1, "activation": "linear", "use_bias": false, "bias_initializer": {"module": "keras.initializers", "class_name": "Zeros", "config": {}, "registered_name": null}, "bias_regularizer": null, "activity_regularizer": null, "bias_constraint": null, "depth_multiplier": 1, "depthwise_initializer": {"module": "keras.initializers", "class_name": "GlorotUniform", "config": {"seed": null}, "registered_name": null}, "depthwise_regularizer": null, "depthwise_constraint": null}, "name": "block_10_depthwise", "inbound_nodes": [[["block_10_expand_relu", 0, 0, {}]]]}, {"class_name": "BatchNormalization", "config": {"name": "block_10_depthwise_BN", "trainable": true, "dtype": "float32", "axis": [3], "momentum": 0.999, "epsilon": 0.001, "center": true, "scale": true, "beta_initializer": {"module": "keras.initializers", "class_name": "Zeros", "config": {}, "registered_name": null}, "gamma_initializer": {"module": "keras.initializers", "class_name": "Ones", "config": {}, "registered_name": null}, "moving_mean_initializer": {"module": "keras.initializers", "class_name": "Zeros", "config": {}, "registered_name": null}, "moving_variance_initializer": {"module": "keras.initializers", "class_name": "Ones", "config": {}, "registered_name": null}, "beta_regularizer": null, "gamma_regularizer": null, "beta_constraint": null, "gamma_constraint": null}, "name": "block_10_depthwise_BN", "inbound_nodes": [[["block_10_depthwise", 0, 0, {}]]]}, {"class_name": "ReLU", "config": {"name": "block_10_depthwise_relu", "trainable": true, "dtype": "float32", "max_value": 6.0, "negative_slope": 0.0, "threshold": 0.0}, "name": "block_10_depthwise_relu", "inbound_nodes": [[["block_10_depthwise_BN", 0, 0, {}]]]}, {"class_name": "Conv2D", "config": {"name": "block_10_project", "trainable": true, "dtype": "float32", "filters": 96, "kernel_size": [1, 1], "strides": [1, 1], "padding": "same", "data_format": "channels_last", "dilation_rate": [1, 1], "groups": 1, "activation": "linear", "use_bias": false, "kernel_initializer": {"module": "keras.initializers", "class_name": "GlorotUniform", "config": {"seed": null}, "registered_name": null}, "bias_initializer": {"module": "keras.initializers", "class_name": "Zeros", "config": {}, "registered_name": null}, "kernel_regularizer": null, "bias_regularizer": null, "activity_regularizer": null, "kernel_constraint": null, "bias_constraint": null}, "name": "block_10_project", "inbound_nodes": [[["block_10_depthwise_relu", 0, 0, {}]]]}, {"class_name": "BatchNormalization", "config": {"name": "block_10_project_BN", "trainable": true, "dtype": "float32", "axis": [3], "momentum": 0.999, "epsilon": 0.001, "center": true, "scale": true, "beta_initializer": {"module": "keras.initializers", "class_name": "Zeros", "config": {}, "registered_name": null}, "gamma_initializer": {"module": "keras.initializers", "class_name": "Ones", "config": {}, "registered_name": null}, "moving_mean_initializer": {"module": "keras.initializers", "class_name": "Zeros", "config": {}, "registered_name": null}, "moving_variance_initializer": {"module": "keras.initializers", "class_name": "Ones", "config": {}, "registered_name": null}, "beta_regularizer": null, "gamma_regularizer": null, "beta_constraint": null, "gamma_constraint": null}, "name": "block_10_project_BN", "inbound_nodes": [[["block_10_project", 0, 0, {}]]]}, {"class_name": "Conv2D", "config": {"name": "block_11_expand", "trainable": true, "dtype": "float32", "filters": 576, "kernel_size": [1, 1], "strides": [1, 1], "padding": "same", "data_format": "channels_last", "dilation_rate": [1, 1], "groups": 1, "activation": "linear", "use_bias": false, "kernel_initializer": {"module": "keras.initializers", "class_name": "GlorotUniform", "config": {"seed": null}, "registered_name": null}, "bias_initializer": {"module": "keras.initializers", "class_name": "Zeros", "config": {}, "registered_name": null}, "kernel_regularizer": null, "bias_regularizer": null, "activity_regularizer": null, "kernel_constraint": null, "bias_constraint": null}, "name": "block_11_expand", "inbound_nodes": [[["block_10_project_BN", 0, 0, {}]]]}, {"class_name": "BatchNormalization", "config": {"name": "block_11_expand_BN", "trainable": true, "dtype": "float32", "axis": [3], "momentum": 0.999, "epsilon": 0.001, "center": true, "scale": true, "beta_initializer": {"module": "keras.initializers", "class_name": "Zeros", "config": {}, "registered_name": null}, "gamma_initializer": {"module": "keras.initializers", "class_name": "Ones", "config": {}, "registered_name": null}, "moving_mean_initializer": {"module": "keras.initializers", "class_name": "Zeros", "config": {}, "registered_name": null}, "moving_variance_initializer": {"module": "keras.initializers", "class_name": "Ones", "config": {}, "registered_name": null}, "beta_regularizer": null, "gamma_regularizer": null, "beta_constraint": null, "gamma_constraint": null}, "name": "block_11_expand_BN", "inbound_nodes": [[["block_11_expand", 0, 0, {}]]]}, {"class_name": "ReLU", "config": {"name": "block_11_expand_relu", "trainable": true, "dtype": "float32", "max_value": 6.0, "negative_slope": 0.0, "threshold": 0.0}, "name": "block_11_expand_relu", "inbound_nodes": [[["block_11_expand_BN", 0, 0, {}]]]}, {"class_name": "DepthwiseConv2D", "config": {"name": "block_11_depthwise", "trainable": true, "dtype": "float32", "kernel_size": [3, 3], "strides": [1, 1], "padding": "same", "data_format": "channels_last", "dilation_rate": [1, 1], "groups": 1, "activation": "linear", "use_bias": false, "bias_initializer": {"module": "keras.initializers", "class_name": "Zeros", "config": {}, "registered_name": null}, "bias_regularizer": null, "activity_regularizer": null, "bias_constraint": null, "depth_multiplier": 1, "depthwise_initializer": {"module": "keras.initializers", "class_name": "GlorotUniform", "config": {"seed": null}, "registered_name": null}, "depthwise_regularizer": null, "depthwise_constraint": null}, "name": "block_11_depthwise", "inbound_nodes": [[["block_11_expand_relu", 0, 0, {}]]]}, {"class_name": "BatchNormalization", "config": {"name": "block_11_depthwise_BN", "trainable": true, "dtype": "float32", "axis": [3], "momentum": 0.999, "epsilon": 0.001, "center": true, "scale": true, "beta_initializer": {"module": "keras.initializers", "class_name": "Zeros", "config": {}, "registered_name": null}, "gamma_initializer": {"module": "keras.initializers", "class_name": "Ones", "config": {}, "registered_name": null}, "moving_mean_initializer": {"module": "keras.initializers", "class_name": "Zeros", "config": {}, "registered_name": null}, "moving_variance_initializer": {"module": "keras.initializers", "class_name": "Ones", "config": {}, "registered_name": null}, "beta_regularizer": null, "gamma_regularizer": null, "beta_constraint": null, "gamma_constraint": null}, "name": "block_11_depthwise_BN", "inbound_nodes": [[["block_11_depthwise", 0, 0, {}]]]}, {"class_name": "ReLU", "config": {"name": "block_11_depthwise_relu", "trainable": true, "dtype": "float32", "max_value": 6.0, "negative_slope": 0.0, "threshold": 0.0}, "name": "block_11_depthwise_relu", "inbound_nodes": [[["block_11_depthwise_BN", 0, 0, {}]]]}, {"class_name": "Conv2D", "config": {"name": "block_11_project", "trainable": true, "dtype": "float32", "filters": 96, "kernel_size": [1, 1], "strides": [1, 1], "padding": "same", "data_format": "channels_last", "dilation_rate": [1, 1], "groups": 1, "activation": "linear", "use_bias": false, "kernel_initializer": {"module": "keras.initializers", "class_name": "GlorotUniform", "config": {"seed": null}, "registered_name": null}, "bias_initializer": {"module": "keras.initializers", "class_name": "Zeros", "config": {}, "registered_name": null}, "kernel_regularizer": null, "bias_regularizer": null, "activity_regularizer": null, "kernel_constraint": null, "bias_constraint": null}, "name": "block_11_project", "inbound_nodes": [[["block_11_depthwise_relu", 0, 0, {}]]]}, {"class_name": "BatchNormalization", "config": {"name": "block_11_project_BN", "trainable": true, "dtype": "float32", "axis": [3], "momentum": 0.999, "epsilon": 0.001, "center": true, "scale": true, "beta_initializer": {"module": "keras.initializers", "class_name": "Zeros", "config": {}, "registered_name": null}, "gamma_initializer": {"module": "keras.initializers", "class_name": "Ones", "config": {}, "registered_name": null}, "moving_mean_initializer": {"module": "keras.initializers", "class_name": "Zeros", "config": {}, "registered_name": null}, "moving_variance_initializer": {"module": "keras.initializers", "class_name": "Ones", "config": {}, "registered_name": null}, "beta_regularizer": null, "gamma_regularizer": null, "beta_constraint": null, "gamma_constraint": null}, "name": "block_11_project_BN", "inbound_nodes": [[["block_11_project", 0, 0, {}]]]}, {"class_name": "Add", "config": {"name": "block_11_add", "trainable": true, "dtype": "float32"}, "name": "block_11_add", "inbound_nodes": [[["block_10_project_BN", 0, 0, {}], ["block_11_project_BN", 0, 0, {}]]]}, {"class_name": "Conv2D", "config": {"name": "block_12_expand", "trainable": true, "dtype": "float32", "filters": 576, "kernel_size": [1, 1], "strides": [1, 1], "padding": "same", "data_format": "channels_last", "dilation_rate": [1, 1], "groups": 1, "activation": "linear", "use_bias": false, "kernel_initializer": {"module": "keras.initializers", "class_name": "GlorotUniform", "config": {"seed": null}, "registered_name": null}, "bias_initializer": {"module": "keras.initializers", "class_name": "Zeros", "config": {}, "registered_name": null}, "kernel_regularizer": null, "bias_regularizer": null, "activity_regularizer": null, "kernel_constraint": null, "bias_constraint": null}, "name": "block_12_expand", "inbound_nodes": [[["block_11_add", 0, 0, {}]]]}, {"class_name": "BatchNormalization", "config": {"name": "block_12_expand_BN", "trainable": true, "dtype": "float32", "axis": [3], "momentum": 0.999, "epsilon": 0.001, "center": true, "scale": true, "beta_initializer": {"module": "keras.initializers", "class_name": "Zeros", "config": {}, "registered_name": null}, "gamma_initializer": {"module": "keras.initializers", "class_name": "Ones", "config": {}, "registered_name": null}, "moving_mean_initializer": {"module": "keras.initializers", "class_name": "Zeros", "config": {}, "registered_name": null}, "moving_variance_initializer": {"module": "keras.initializers", "class_name": "Ones", "config": {}, "registered_name": null}, "beta_regularizer": null, "gamma_regularizer": null, "beta_constraint": null, "gamma_constraint": null}, "name": "block_12_expand_BN", "inbound_nodes": [[["block_12_expand", 0, 0, {}]]]}, {"class_name": "ReLU", "config": {"name": "block_12_expand_relu", "trainable": true, "dtype": "float32", "max_value": 6.0, "negative_slope": 0.0, "threshold": 0.0}, "name": "block_12_expand_relu", "inbound_nodes": [[["block_12_expand_BN", 0, 0, {}]]]}, {"class_name": "DepthwiseConv2D", "config": {"name": "block_12_depthwise", "trainable": true, "dtype": "float32", "kernel_size": [3, 3], "strides": [1, 1], "padding": "same", "data_format": "channels_last", "dilation_rate": [1, 1], "groups": 1, "activation": "linear", "use_bias": false, "bias_initializer": {"module": "keras.initializers", "class_name": "Zeros", "config": {}, "registered_name": null}, "bias_regularizer": null, "activity_regularizer": null, "bias_constraint": null, "depth_multiplier": 1, "depthwise_initializer": {"module": "keras.initializers", "class_name": "GlorotUniform", "config": {"seed": null}, "registered_name": null}, "depthwise_regularizer": null, "depthwise_constraint": null}, "name": "block_12_depthwise", "inbound_nodes": [[["block_12_expand_relu", 0, 0, {}]]]}, {"class_name": "BatchNormalization", "config": {"name": "block_12_depthwise_BN", "trainable": true, "dtype": "float32", "axis": [3], "momentum": 0.999, "epsilon": 0.001, "center": true, "scale": true, "beta_initializer": {"module": "keras.initializers", "class_name": "Zeros", "config": {}, "registered_name": null}, "gamma_initializer": {"module": "keras.initializers", "class_name": "Ones", "config": {}, "registered_name": null}, "moving_mean_initializer": {"module": "keras.initializers", "class_name": "Zeros", "config": {}, "registered_name": null}, "moving_variance_initializer": {"module": "keras.initializers", "class_name": "Ones", "config": {}, "registered_name": null}, "beta_regularizer": null, "gamma_regularizer": null, "beta_constraint": null, "gamma_constraint": null}, "name": "block_12_depthwise_BN", "inbound_nodes": [[["block_12_depthwise", 0, 0, {}]]]}, {"class_name": "ReLU", "config": {"name": "block_12_depthwise_relu", "trainable": true, "dtype": "float32", "max_value": 6.0, "negative_slope": 0.0, "threshold": 0.0}, "name": "block_12_depthwise_relu", "inbound_nodes": [[["block_12_depthwise_BN", 0, 0, {}]]]}, {"class_name": "Conv2D", "config": {"name": "block_12_project", "trainable": true, "dtype": "float32", "filters": 96, "kernel_size": [1, 1], "strides": [1, 1], "padding": "same", "data_format": "channels_last", "dilation_rate": [1, 1], "groups": 1, "activation": "linear", "use_bias": false, "kernel_initializer": {"module": "keras.initializers", "class_name": "GlorotUniform", "config": {"seed": null}, "registered_name": null}, "bias_initializer": {"module": "keras.initializers", "class_name": "Zeros", "config": {}, "registered_name": null}, "kernel_regularizer": null, "bias_regularizer": null, "activity_regularizer": null, "kernel_constraint": null, "bias_constraint": null}, "name": "block_12_project", "inbound_nodes": [[["block_12_depthwise_relu", 0, 0, {}]]]}, {"class_name": "BatchNormalization", "config": {"name": "block_12_project_BN", "trainable": true, "dtype": "float32", "axis": [3], "momentum": 0.999, "epsilon": 0.001, "center": true, "scale": true, "beta_initializer": {"module": "keras.initializers", "class_name": "Zeros", "config": {}, "registered_name": null}, "gamma_initializer": {"module": "keras.initializers", "class_name": "Ones", "config": {}, "registered_name": null}, "moving_mean_initializer": {"module": "keras.initializers", "class_name": "Zeros", "config": {}, "registered_name": null}, "moving_variance_initializer": {"module": "keras.initializers", "class_name": "Ones", "config": {}, "registered_name": null}, "beta_regularizer": null, "gamma_regularizer": null, "beta_constraint": null, "gamma_constraint": null}, "name": "block_12_project_BN", "inbound_nodes": [[["block_12_project", 0, 0, {}]]]}, {"class_name": "Add", "config": {"name": "block_12_add", "trainable": true, "dtype": "float32"}, "name": "block_12_add", "inbound_nodes": [[["block_11_add", 0, 0, {}], ["block_12_project_BN", 0, 0, {}]]]}, {"class_name": "Conv2D", "config": {"name": "block_13_expand", "trainable": true, "dtype": "float32", "filters": 576, "kernel_size": [1, 1], "strides": [1, 1], "padding": "same", "data_format": "channels_last", "dilation_rate": [1, 1], "groups": 1, "activation": "linear", "use_bias": false, "kernel_initializer": {"module": "keras.initializers", "class_name": "GlorotUniform", "config": {"seed": null}, "registered_name": null}, "bias_initializer": {"module": "keras.initializers", "class_name": "Zeros", "config": {}, "registered_name": null}, "kernel_regularizer": null, "bias_regularizer": null, "activity_regularizer": null, "kernel_constraint": null, "bias_constraint": null}, "name": "block_13_expand", "inbound_nodes": [[["block_12_add", 0, 0, {}]]]}, {"class_name": "BatchNormalization", "config": {"name": "block_13_expand_BN", "trainable": true, "dtype": "float32", "axis": [3], "momentum": 0.999, "epsilon": 0.001, "center": true, "scale": true, "beta_initializer": {"module": "keras.initializers", "class_name": "Zeros", "config": {}, "registered_name": null}, "gamma_initializer": {"module": "keras.initializers", "class_name": "Ones", "config": {}, "registered_name": null}, "moving_mean_initializer": {"module": "keras.initializers", "class_name": "Zeros", "config": {}, "registered_name": null}, "moving_variance_initializer": {"module": "keras.initializers", "class_name": "Ones", "config": {}, "registered_name": null}, "beta_regularizer": null, "gamma_regularizer": null, "beta_constraint": null, "gamma_constraint": null}, "name": "block_13_expand_BN", "inbound_nodes": [[["block_13_expand", 0, 0, {}]]]}, {"class_name": "ReLU", "config": {"name": "block_13_expand_relu", "trainable": true, "dtype": "float32", "max_value": 6.0, "negative_slope": 0.0, "threshold": 0.0}, "name": "block_13_expand_relu", "inbound_nodes": [[["block_13_expand_BN", 0, 0, {}]]]}, {"class_name": "ZeroPadding2D", "config": {"name": "block_13_pad", "trainable": true, "dtype": "float32", "padding": [[0, 1], [0, 1]], "data_format": "channels_last"}, "name": "block_13_pad", "inbound_nodes": [[["block_13_expand_relu", 0, 0, {}]]]}, {"class_name": "DepthwiseConv2D", "config": {"name": "block_13_depthwise", "trainable": true, "dtype": "float32", "kernel_size": [3, 3], "strides": [2, 2], "padding": "valid", "data_format": "channels_last", "dilation_rate": [1, 1], "groups": 1, "activation": "linear", "use_bias": false, "bias_initializer": {"module": "keras.initializers", "class_name": "Zeros", "config": {}, "registered_name": null}, "bias_regularizer": null, "activity_regularizer": null, "bias_constraint": null, "depth_multiplier": 1, "depthwise_initializer": {"module": "keras.initializers", "class_name": "GlorotUniform", "config": {"seed": null}, "registered_name": null}, "depthwise_regularizer": null, "depthwise_constraint": null}, "name": "block_13_depthwise", "inbound_nodes": [[["block_13_pad", 0, 0, {}]]]}, {"class_name": "BatchNormalization", "config": {"name": "block_13_depthwise_BN", "trainable": true, "dtype": "float32", "axis": [3], "momentum": 0.999, "epsilon": 0.001, "center": true, "scale": true, "beta_initializer": {"module": "keras.initializers", "class_name": "Zeros", "config": {}, "registered_name": null}, "gamma_initializer": {"module": "keras.initializers", "class_name": "Ones", "config": {}, "registered_name": null}, "moving_mean_initializer": {"module": "keras.initializers", "class_name": "Zeros", "config": {}, "registered_name": null}, "moving_variance_initializer": {"module": "keras.initializers", "class_name": "Ones", "config": {}, "registered_name": null}, "beta_regularizer": null, "gamma_regularizer": null, "beta_constraint": null, "gamma_constraint": null}, "name": "block_13_depthwise_BN", "inbound_nodes": [[["block_13_depthwise", 0, 0, {}]]]}, {"class_name": "ReLU", "config": {"name": "block_13_depthwise_relu", "trainable": true, "dtype": "float32", "max_value": 6.0, "negative_slope": 0.0, "threshold": 0.0}, "name": "block_13_depthwise_relu", "inbound_nodes": [[["block_13_depthwise_BN", 0, 0, {}]]]}, {"class_name": "Conv2D", "config": {"name": "block_13_project", "trainable": true, "dtype": "float32", "filters": 160, "kernel_size": [1, 1], "strides": [1, 1], "padding": "same", "data_format": "channels_last", "dilation_rate": [1, 1], "groups": 1, "activation": "linear", "use_bias": false, "kernel_initializer": {"module": "keras.initializers", "class_name": "GlorotUniform", "config": {"seed": null}, "registered_name": null}, "bias_initializer": {"module": "keras.initializers", "class_name": "Zeros", "config": {}, "registered_name": null}, "kernel_regularizer": null, "bias_regularizer": null, "activity_regularizer": null, "kernel_constraint": null, "bias_constraint": null}, "name": "block_13_project", "inbound_nodes": [[["block_13_depthwise_relu", 0, 0, {}]]]}, {"class_name": "BatchNormalization", "config": {"name": "block_13_project_BN", "trainable": true, "dtype": "float32", "axis": [3], "momentum": 0.999, "epsilon": 0.001, "center": true, "scale": true, "beta_initializer": {"module": "keras.initializers", "class_name": "Zeros", "config": {}, "registered_name": null}, "gamma_initializer": {"module": "keras.initializers", "class_name": "Ones", "config": {}, "registered_name": null}, "moving_mean_initializer": {"module": "keras.initializers", "class_name": "Zeros", "config": {}, "registered_name": null}, "moving_variance_initializer": {"module": "keras.initializers", "class_name": "Ones", "config": {}, "registered_name": null}, "beta_regularizer": null, "gamma_regularizer": null, "beta_constraint": null, "gamma_constraint": null}, "name": "block_13_project_BN", "inbound_nodes": [[["block_13_project", 0, 0, {}]]]}, {"class_name": "Conv2D", "config": {"name": "block_14_expand", "trainable": true, "dtype": "float32", "filters": 960, "kernel_size": [1, 1], "strides": [1, 1], "padding": "same", "data_format": "channels_last", "dilation_rate": [1, 1], "groups": 1, "activation": "linear", "use_bias": false, "kernel_initializer": {"module": "keras.initializers", "class_name": "GlorotUniform", "config": {"seed": null}, "registered_name": null}, "bias_initializer": {"module": "keras.initializers", "class_name": "Zeros", "config": {}, "registered_name": null}, "kernel_regularizer": null, "bias_regularizer": null, "activity_regularizer": null, "kernel_constraint": null, "bias_constraint": null}, "name": "block_14_expand", "inbound_nodes": [[["block_13_project_BN", 0, 0, {}]]]}, {"class_name": "BatchNormalization", "config": {"name": "block_14_expand_BN", "trainable": true, "dtype": "float32", "axis": [3], "momentum": 0.999, "epsilon": 0.001, "center": true, "scale": true, "beta_initializer": {"module": "keras.initializers", "class_name": "Zeros", "config": {}, "registered_name": null}, "gamma_initializer": {"module": "keras.initializers", "class_name": "Ones", "config": {}, "registered_name": null}, "moving_mean_initializer": {"module": "keras.initializers", "class_name": "Zeros", "config": {}, "registered_name": null}, "moving_variance_initializer": {"module": "keras.initializers", "class_name": "Ones", "config": {}, "registered_name": null}, "beta_regularizer": null, "gamma_regularizer": null, "beta_constraint": null, "gamma_constraint": null}, "name": "block_14_expand_BN", "inbound_nodes": [[["block_14_expand", 0, 0, {}]]]}, {"class_name": "ReLU", "config": {"name": "block_14_expand_relu", "trainable": true, "dtype": "float32", "max_value": 6.0, "negative_slope": 0.0, "threshold": 0.0}, "name": "block_14_expand_relu", "inbound_nodes": [[["block_14_expand_BN", 0, 0, {}]]]}, {"class_name": "DepthwiseConv2D", "config": {"name": "block_14_depthwise", "trainable": true, "dtype": "float32", "kernel_size": [3, 3], "strides": [1, 1], "padding": "same", "data_format": "channels_last", "dilation_rate": [1, 1], "groups": 1, "activation": "linear", "use_bias": false, "bias_initializer": {"module": "keras.initializers", "class_name": "Zeros", "config": {}, "registered_name": null}, "bias_regularizer": null, "activity_regularizer": null, "bias_constraint": null, "depth_multiplier": 1, "depthwise_initializer": {"module": "keras.initializers", "class_name": "GlorotUniform", "config": {"seed": null}, "registered_name": null}, "depthwise_regularizer": null, "depthwise_constraint": null}, "name": "block_14_depthwise", "inbound_nodes": [[["block_14_expand_relu", 0, 0, {}]]]}, {"class_name": "BatchNormalization", "config": {"name": "block_14_depthwise_BN", "trainable": true, "dtype": "float32", "axis": [3], "momentum": 0.999, "epsilon": 0.001, "center": true, "scale": true, "beta_initializer": {"module": "keras.initializers", "class_name": "Zeros", "config": {}, "registered_name": null}, "gamma_initializer": {"module": "keras.initializers", "class_name": "Ones", "config": {}, "registered_name": null}, "moving_mean_initializer": {"module": "keras.initializers", "class_name": "Zeros", "config": {}, "registered_name": null}, "moving_variance_initializer": {"module": "keras.initializers", "class_name": "Ones", "config": {}, "registered_name": null}, "beta_regularizer": null, "gamma_regularizer": null, "beta_constraint": null, "gamma_constraint": null}, "name": "block_14_depthwise_BN", "inbound_nodes": [[["block_14_depthwise", 0, 0, {}]]]}, {"class_name": "ReLU", "config": {"name": "block_14_depthwise_relu", "trainable": true, "dtype": "float32", "max_value": 6.0, "negative_slope": 0.0, "threshold": 0.0}, "name": "block_14_depthwise_relu", "inbound_nodes": [[["block_14_depthwise_BN", 0, 0, {}]]]}, {"class_name": "Conv2D", "config": {"name": "block_14_project", "trainable": true, "dtype": "float32", "filters": 160, "kernel_size": [1, 1], "strides": [1, 1], "padding": "same", "data_format": "channels_last", "dilation_rate": [1, 1], "groups": 1, "activation": "linear", "use_bias": false, "kernel_initializer": {"module": "keras.initializers", "class_name": "GlorotUniform", "config": {"seed": null}, "registered_name": null}, "bias_initializer": {"module": "keras.initializers", "class_name": "Zeros", "config": {}, "registered_name": null}, "kernel_regularizer": null, "bias_regularizer": null, "activity_regularizer": null, "kernel_constraint": null, "bias_constraint": null}, "name": "block_14_project", "inbound_nodes": [[["block_14_depthwise_relu", 0, 0, {}]]]}, {"class_name": "BatchNormalization", "config": {"name": "block_14_project_BN", "trainable": true, "dtype": "float32", "axis": [3], "momentum": 0.999, "epsilon": 0.001, "center": true, "scale": true, "beta_initializer": {"module": "keras.initializers", "class_name": "Zeros", "config": {}, "registered_name": null}, "gamma_initializer": {"module": "keras.initializers", "class_name": "Ones", "config": {}, "registered_name": null}, "moving_mean_initializer": {"module": "keras.initializers", "class_name": "Zeros", "config": {}, "registered_name": null}, "moving_variance_initializer": {"module": "keras.initializers", "class_name": "Ones", "config": {}, "registered_name": null}, "beta_regularizer": null, "gamma_regularizer": null, "beta_constraint": null, "gamma_constraint": null}, "name": "block_14_project_BN", "inbound_nodes": [[["block_14_project", 0, 0, {}]]]}, {"class_name": "Add", "config": {"name": "block_14_add", "trainable": true, "dtype": "float32"}, "name": "block_14_add", "inbound_nodes": [[["block_13_project_BN", 0, 0, {}], ["block_14_project_BN", 0, 0, {}]]]}, {"class_name": "Conv2D", "config": {"name": "block_15_expand", "trainable": true, "dtype": "float32", "filters": 960, "kernel_size": [1, 1], "strides": [1, 1], "padding": "same", "data_format": "channels_last", "dilation_rate": [1, 1], "groups": 1, "activation": "linear", "use_bias": false, "kernel_initializer": {"module": "keras.initializers", "class_name": "GlorotUniform", "config": {"seed": null}, "registered_name": null}, "bias_initializer": {"module": "keras.initializers", "class_name": "Zeros", "config": {}, "registered_name": null}, "kernel_regularizer": null, "bias_regularizer": null, "activity_regularizer": null, "kernel_constraint": null, "bias_constraint": null}, "name": "block_15_expand", "inbound_nodes": [[["block_14_add", 0, 0, {}]]]}, {"class_name": "BatchNormalization", "config": {"name": "block_15_expand_BN", "trainable": true, "dtype": "float32", "axis": [3], "momentum": 0.999, "epsilon": 0.001, "center": true, "scale": true, "beta_initializer": {"module": "keras.initializers", "class_name": "Zeros", "config": {}, "registered_name": null}, "gamma_initializer": {"module": "keras.initializers", "class_name": "Ones", "config": {}, "registered_name": null}, "moving_mean_initializer": {"module": "keras.initializers", "class_name": "Zeros", "config": {}, "registered_name": null}, "moving_variance_initializer": {"module": "keras.initializers", "class_name": "Ones", "config": {}, "registered_name": null}, "beta_regularizer": null, "gamma_regularizer": null, "beta_constraint": null, "gamma_constraint": null}, "name": "block_15_expand_BN", "inbound_nodes": [[["block_15_expand", 0, 0, {}]]]}, {"class_name": "ReLU", "config": {"name": "block_15_expand_relu", "trainable": true, "dtype": "float32", "max_value": 6.0, "negative_slope": 0.0, "threshold": 0.0}, "name": "block_15_expand_relu", "inbound_nodes": [[["block_15_expand_BN", 0, 0, {}]]]}, {"class_name": "DepthwiseConv2D", "config": {"name": "block_15_depthwise", "trainable": true, "dtype": "float32", "kernel_size": [3, 3], "strides": [1, 1], "padding": "same", "data_format": "channels_last", "dilation_rate": [1, 1], "groups": 1, "activation": "linear", "use_bias": false, "bias_initializer": {"module": "keras.initializers", "class_name": "Zeros", "config": {}, "registered_name": null}, "bias_regularizer": null, "activity_regularizer": null, "bias_constraint": null, "depth_multiplier": 1, "depthwise_initializer": {"module": "keras.initializers", "class_name": "GlorotUniform", "config": {"seed": null}, "registered_name": null}, "depthwise_regularizer": null, "depthwise_constraint": null}, "name": "block_15_depthwise", "inbound_nodes": [[["block_15_expand_relu", 0, 0, {}]]]}, {"class_name": "BatchNormalization", "config": {"name": "block_15_depthwise_BN", "trainable": true, "dtype": "float32", "axis": [3], "momentum": 0.999, "epsilon": 0.001, "center": true, "scale": true, "beta_initializer": {"module": "keras.initializers", "class_name": "Zeros", "config": {}, "registered_name": null}, "gamma_initializer": {"module": "keras.initializers", "class_name": "Ones", "config": {}, "registered_name": null}, "moving_mean_initializer": {"module": "keras.initializers", "class_name": "Zeros", "config": {}, "registered_name": null}, "moving_variance_initializer": {"module": "keras.initializers", "class_name": "Ones", "config": {}, "registered_name": null}, "beta_regularizer": null, "gamma_regularizer": null, "beta_constraint": null, "gamma_constraint": null}, "name": "block_15_depthwise_BN", "inbound_nodes": [[["block_15_depthwise", 0, 0, {}]]]}, {"class_name": "ReLU", "config": {"name": "block_15_depthwise_relu", "trainable": true, "dtype": "float32", "max_value": 6.0, "negative_slope": 0.0, "threshold": 0.0}, "name": "block_15_depthwise_relu", "inbound_nodes": [[["block_15_depthwise_BN", 0, 0, {}]]]}, {"class_name": "Conv2D", "config": {"name": "block_15_project", "trainable": true, "dtype": "float32", "filters": 160, "kernel_size": [1, 1], "strides": [1, 1], "padding": "same", "data_format": "channels_last", "dilation_rate": [1, 1], "groups": 1, "activation": "linear", "use_bias": false, "kernel_initializer": {"module": "keras.initializers", "class_name": "GlorotUniform", "config": {"seed": null}, "registered_name": null}, "bias_initializer": {"module": "keras.initializers", "class_name": "Zeros", "config": {}, "registered_name": null}, "kernel_regularizer": null, "bias_regularizer": null, "activity_regularizer": null, "kernel_constraint": null, "bias_constraint": null}, "name": "block_15_project", "inbound_nodes": [[["block_15_depthwise_relu", 0, 0, {}]]]}, {"class_name": "BatchNormalization", "config": {"name": "block_15_project_BN", "trainable": true, "dtype": "float32", "axis": [3], "momentum": 0.999, "epsilon": 0.001, "center": true, "scale": true, "beta_initializer": {"module": "keras.initializers", "class_name": "Zeros", "config": {}, "registered_name": null}, "gamma_initializer": {"module": "keras.initializers", "class_name": "Ones", "config": {}, "registered_name": null}, "moving_mean_initializer": {"module": "keras.initializers", "class_name": "Zeros", "config": {}, "registered_name": null}, "moving_variance_initializer": {"module": "keras.initializers", "class_name": "Ones", "config": {}, "registered_name": null}, "beta_regularizer": null, "gamma_regularizer": null, "beta_constraint": null, "gamma_constraint": null}, "name": "block_15_project_BN", "inbound_nodes": [[["block_15_project", 0, 0, {}]]]}, {"class_name": "Add", "config": {"name": "block_15_add", "trainable": true, "dtype": "float32"}, "name": "block_15_add", "inbound_nodes": [[["block_14_add", 0, 0, {}], ["block_15_project_BN", 0, 0, {}]]]}, {"class_name": "Conv2D", "config": {"name": "block_16_expand", "trainable": true, "dtype": "float32", "filters": 960, "kernel_size": [1, 1], "strides": [1, 1], "padding": "same", "data_format": "channels_last", "dilation_rate": [1, 1], "groups": 1, "activation": "linear", "use_bias": false, "kernel_initializer": {"module": "keras.initializers", "class_name": "GlorotUniform", "config": {"seed": null}, "registered_name": null}, "bias_initializer": {"module": "keras.initializers", "class_name": "Zeros", "config": {}, "registered_name": null}, "kernel_regularizer": null, "bias_regularizer": null, "activity_regularizer": null, "kernel_constraint": null, "bias_constraint": null}, "name": "block_16_expand", "inbound_nodes": [[["block_15_add", 0, 0, {}]]]}, {"class_name": "BatchNormalization", "config": {"name": "block_16_expand_BN", "trainable": true, "dtype": "float32", "axis": [3], "momentum": 0.999, "epsilon": 0.001, "center": true, "scale": true, "beta_initializer": {"module": "keras.initializers", "class_name": "Zeros", "config": {}, "registered_name": null}, "gamma_initializer": {"module": "keras.initializers", "class_name": "Ones", "config": {}, "registered_name": null}, "moving_mean_initializer": {"module": "keras.initializers", "class_name": "Zeros", "config": {}, "registered_name": null}, "moving_variance_initializer": {"module": "keras.initializers", "class_name": "Ones", "config": {}, "registered_name": null}, "beta_regularizer": null, "gamma_regularizer": null, "beta_constraint": null, "gamma_constraint": null}, "name": "block_16_expand_BN", "inbound_nodes": [[["block_16_expand", 0, 0, {}]]]}, {"class_name": "ReLU", "config": {"name": "block_16_expand_relu", "trainable": true, "dtype": "float32", "max_value": 6.0, "negative_slope": 0.0, "threshold": 0.0}, "name": "block_16_expand_relu", "inbound_nodes": [[["block_16_expand_BN", 0, 0, {}]]]}, {"class_name": "DepthwiseConv2D", "config": {"name": "block_16_depthwise", "trainable": true, "dtype": "float32", "kernel_size": [3, 3], "strides": [1, 1], "padding": "same", "data_format": "channels_last", "dilation_rate": [1, 1], "groups": 1, "activation": "linear", "use_bias": false, "bias_initializer": {"module": "keras.initializers", "class_name": "Zeros", "config": {}, "registered_name": null}, "bias_regularizer": null, "activity_regularizer": null, "bias_constraint": null, "depth_multiplier": 1, "depthwise_initializer": {"module": "keras.initializers", "class_name": "GlorotUniform", "config": {"seed": null}, "registered_name": null}, "depthwise_regularizer": null, "depthwise_constraint": null}, "name": "block_16_depthwise", "inbound_nodes": [[["block_16_expand_relu", 0, 0, {}]]]}, {"class_name": "BatchNormalization", "config": {"name": "block_16_depthwise_BN", "trainable": true, "dtype": "float32", "axis": [3], "momentum": 0.999, "epsilon": 0.001, "center": true, "scale": true, "beta_initializer": {"module": "keras.initializers", "class_name": "Zeros", "config": {}, "registered_name": null}, "gamma_initializer": {"module": "keras.initializers", "class_name": "Ones", "config": {}, "registered_name": null}, "moving_mean_initializer": {"module": "keras.initializers", "class_name": "Zeros", "config": {}, "registered_name": null}, "moving_variance_initializer": {"module": "keras.initializers", "class_name": "Ones", "config": {}, "registered_name": null}, "beta_regularizer": null, "gamma_regularizer": null, "beta_constraint": null, "gamma_constraint": null}, "name": "block_16_depthwise_BN", "inbound_nodes": [[["block_16_depthwise", 0, 0, {}]]]}, {"class_name": "ReLU", "config": {"name": "block_16_depthwise_relu", "trainable": true, "dtype": "float32", "max_value": 6.0, "negative_slope": 0.0, "threshold": 0.0}, "name": "block_16_depthwise_relu", "inbound_nodes": [[["block_16_depthwise_BN", 0, 0, {}]]]}, {"class_name": "Conv2D", "config": {"name": "block_16_project", "trainable": true, "dtype": "float32", "filters": 320, "kernel_size": [1, 1], "strides": [1, 1], "padding": "same", "data_format": "channels_last", "dilation_rate": [1, 1], "groups": 1, "activation": "linear", "use_bias": false, "kernel_initializer": {"module": "keras.initializers", "class_name": "GlorotUniform", "config": {"seed": null}, "registered_name": null}, "bias_initializer": {"module": "keras.initializers", "class_name": "Zeros", "config": {}, "registered_name": null}, "kernel_regularizer": null, "bias_regularizer": null, "activity_regularizer": null, "kernel_constraint": null, "bias_constraint": null}, "name": "block_16_project", "inbound_nodes": [[["block_16_depthwise_relu", 0, 0, {}]]]}, {"class_name": "BatchNormalization", "config": {"name": "block_16_project_BN", "trainable": true, "dtype": "float32", "axis": [3], "momentum": 0.999, "epsilon": 0.001, "center": true, "scale": true, "beta_initializer": {"module": "keras.initializers", "class_name": "Zeros", "config": {}, "registered_name": null}, "gamma_initializer": {"module": "keras.initializers", "class_name": "Ones", "config": {}, "registered_name": null}, "moving_mean_initializer": {"module": "keras.initializers", "class_name": "Zeros", "config": {}, "registered_name": null}, "moving_variance_initializer": {"module": "keras.initializers", "class_name": "Ones", "config": {}, "registered_name": null}, "beta_regularizer": null, "gamma_regularizer": null, "beta_constraint": null, "gamma_constraint": null}, "name": "block_16_project_BN", "inbound_nodes": [[["block_16_project", 0, 0, {}]]]}, {"class_name": "Conv2D", "config": {"name": "Conv_1", "trainable": true, "dtype": "float32", "filters": 1280, "kernel_size": [1, 1], "strides": [1, 1], "padding": "valid", "data_format": "channels_last", "dilation_rate": [1, 1], "groups": 1, "activation": "linear", "use_bias": false, "kernel_initializer": {"module": "keras.initializers", "class_name": "GlorotUniform", "config": {"seed": null}, "registered_name": null}, "bias_initializer": {"module": "keras.initializers", "class_name": "Zeros", "config": {}, "registered_name": null}, "kernel_regularizer": null, "bias_regularizer": null, "activity_regularizer": null, "kernel_constraint": null, "bias_constraint": null}, "name": "Conv_1", "inbound_nodes": [[["block_16_project_BN", 0, 0, {}]]]}, {"class_name": "BatchNormalization", "config": {"name": "Conv_1_bn", "trainable": true, "dtype": "float32", "axis": [3], "momentum": 0.999, "epsilon": 0.001, "center": true, "scale": true, "beta_initializer": {"module": "keras.initializers", "class_name": "Zeros", "config": {}, "registered_name": null}, "gamma_initializer": {"module": "keras.initializers", "class_name": "Ones", "config": {}, "registered_name": null}, "moving_mean_initializer": {"module": "keras.initializers", "class_name": "Zeros", "config": {}, "registered_name": null}, "moving_variance_initializer": {"module": "keras.initializers", "class_name": "Ones", "config": {}, "registered_name": null}, "beta_regularizer": null, "gamma_regularizer": null, "beta_constraint": null, "gamma_constraint": null}, "name": "Conv_1_bn", "inbound_nodes": [[["Conv_1", 0, 0, {}]]]}, {"class_name": "ReLU", "config": {"name": "out_relu", "trainable": true, "dtype": "float32", "max_value": 6.0, "negative_slope": 0.0, "threshold": 0.0}, "name": "out_relu", "inbound_nodes": [[["Conv_1_bn", 0, 0, {}]]]}], "input_layers": [["input_1", 0, 0]], "output_layers": [["out_relu", 0, 0]]}, "name": "mobilenetv2_1.00_224", "inbound_nodes": [[["input_2", 0, 0, {}]]]}, {"class_name": "GlobalAveragePooling2D", "config": {"name": "global_average_pooling2d", "trainable": true, "dtype": "float32", "data_format": "channels_last", "keepdims": false}, "name": "global_average_pooling2d", "inbound_nodes": [[["mobilenetv2_1.00_224", 1, 0, {}]]]}, {"class_name": "Dropout", "config": {"name": "dropout", "trainable": true, "dtype": "float32", "rate": 0.2, "noise_shape": null, "seed": null}, "name": "dropout", "inbound_nodes": [[["global_average_pooling2d", 0, 0, {}]]]}, {"class_name": "Dense", "config": {"name": "dense", "trainable": true, "dtype": "float32", "units": 3, "activation": "softmax", "use_bias": true, "kernel_initializer": {"module": "keras.initializers", "class_name": "GlorotUniform", "config": {"seed": null}, "registered_name": null}, "bias_initializer": {"module": "keras.initializers", "class_name": "Zeros", "config": {}, "registered_name": null}, "kernel_regularizer": null, "bias_regularizer": null, "activity_regularizer": null, "kernel_constraint": null, "bias_constraint": null}, "name": "dense", "inbound_nodes": [[["dropout", 0, 0, {}]]]}], "input_layers": [["input_2", 0, 0]], "output_layers": [["dense", 0, 0]]}}}, "weightsManifest": [{"paths": ["group1-shard1of1.bin"], "weights": [{"name": "dense/kernel", "shape": [1280, 3], "dtype": "float32", "quantization": {"dtype": "uint8", "min": -0.17184168135418612, "scale": 0.0014201791847453398, "original_dtype": "float32"}}, {"name": "dense/bias", "shape": [3], "dtype": "float32", "quantization": {"dtype": "uint8", "min": -0.011944834690760164, "scale": 0.00017311354624290092, "original_dtype": "float32"}}, {"name": "Conv1/kernel", "shape": [3, 3, 3, 32], "dtype": "float32", "quantization": {"dtype": "uint8", "min": -0.7731621312160117, "scale": 0.005947401009353937, "original_dtype": "float32"}}, {"name": "bn_Conv1/gamma", "shape": [32], "dtype": "float32", "quantization": {"dtype": "uint8", "min": 0.15859852731227875, "scale": 0.016216956458839717, "original_dtype": "float32"}}, {"name": "bn_Conv1/beta", "shape": [32], "dtype": "float32", "quantization": {"dtype": "uint8", "min": -6.16716075224035, "scale": 0.04282750522389132, "original_dtype": "float32"}}, {"name": "expanded_conv_depthwise/depthwise_kernel", "shape": [3, 3, 32, 1], "dtype": "float32", "quantization": {"dtype": "uint8", "min": -25.74281422484155, "scale": 0.19355499417174096, "original_dtype": "float32"}}, {"name": "expanded_conv_depthwise_BN/gamma", "shape": [32], "dtype": "float32", "quantization": {"dtype": "uint8", "min": -0.09372427218100604, "scale": 0.007209559398538926, "original_dtype": "float32"}}, {"name": "expanded_conv_depthwise_BN/beta", "shape": [32], "dtype": "float32", "quantization": {"dtype": "uint8", "min": -1.36798802170099, "scale": 0.018739561941109453, "original_dtype": "float32"}}, {"name": "expanded_conv_project/kernel", "shape": [1, 1, 32, 16], "dtype": "float32", "quantization": {"dtype": "uint8", "min": -1.2893707537183574, "scale": 0.008831306532317517, "original_dtype": "float32"}}, {"name": "expanded_conv_project_BN/gamma", "shape": [16], "dtype": "float32", "quantization": {"dtype": "uint8", "min": 2.637812614440918, "scale": 0.009855462990555109, "original_dtype": "float32"}}, {"name": "expanded_conv_project_BN/beta", "shape": [16], "dtype": "float32", "quantization": {"dtype": "uint8", "min": -0.03885560184717179, "scale": 0.0004466161131858826, "original_dtype": "float32"}}, {"name": "block_1_expand/kernel", "shape": [1, 1, 16, 96], "dtype": "float32", "quantization": {"dtype": "uint8", "min": -1.123040149492376, "scale": 0.006975404655232149, "original_dtype": "float32"}}, {"name": "block_1_expand_BN/gamma", "shape": [96], "dtype": "float32", "quantization": {"dtype": "uint8", "min": 0.20588980615139008, "scale": 0.03753212906566321, "original_dtype": "float32"}}, {"name": "block_1_expand_BN/beta", "shape": [96], "dtype": "float32", "quantization": {"dtype": "uint8", "min": -2.2416487301097194, "scale": 0.028020609126371495, "original_dtype": "float32"}}, {"name": "block_1_depthwise/depthwise_kernel", "shape": [3, 3, 96, 1], "dtype": "float32", "quantization": {"dtype": "uint8", "min": -3.0725193799710744, "scale": 0.025392722148521275, "original_dtype": "float32"}}, {"name": "block_1_depthwise_BN/gamma", "shape": [96], "dtype": "float32", "quantization": {"dtype": "uint8", "min": 0.45326632261276245, "scale": 0.011622508600646375, "original_dtype": "float32"}}, {"name": "block_1_depthwise_BN/beta", "shape": [96], "dtype": "float32", "quantization": {"dtype": "uint8", "min": -4.131769672094607, "scale": 0.0341468567941703, "original_dtype": "float32"}}, {"name": "block_1_project/kernel", "shape": [1, 1, 96, 24], "dtype": "float32", "quantization": {"dtype": "uint8", "min": -1.2286525053136488, "scale": 0.0074463788200827205, "original_dtype": "float32"}}, {"name": "block_1_project_BN/gamma", "shape": [24], "dtype": "float32", "quantization": {"dtype": "uint8", "min": 1.9872292280197144, "scale": 0.013049210286607929, "original_dtype": "float32"}}, {"name": "block_1_project_BN/beta", "shape": [24], "dtype": "float32", "quantization": {"dtype": "uint8", "min": -0.010182667633189875, "scale": 8.081482248563392e-05, "original_dtype": "float32"}}, {"name": "block_2_expand/kernel", "shape": [1, 1, 24, 144], "dtype": "float32", "quantization": {"dtype": "uint8", "min": -0.46050055424372355, "scale": 0.003869752556669946, "original_dtype": "float32"}}, {"name": "block_2_expand_BN/gamma", "shape": [144], "dtype": "float32", "quantization": {"dtype": "uint8", "min": 0.18224389851093292, "scale": 0.01641110596703548, "original_dtype": "float32"}}, {"name": "block_2_expand_BN/beta", "shape": [144], "dtype": "float32", "quantization": {"dtype": "uint8", "min": -2.583141803741455, "scale": 0.028701575597127278, "original_dtype": "float32"}}, {"name": "block_2_depthwise/depthwise_kernel", "shape": [3, 3, 144, 1], "dtype": "float32", "quantization": {"dtype": "uint8", "min": -7.222774090486414, "scale": 0.05872174057306028, "original_dtype": "float32"}}, {"name": "block_2_depthwise_BN/gamma", "shape": [144], "dtype": "float32", "quantization": {"dtype": "uint8", "min": 0.41318702697753906, "scale": 0.008272699281281116, "original_dtype": "float32"}}, {"name": "block_2_depthwise_BN/beta", "shape": [144], "dtype": "float32", "quantization": {"dtype": "uint8", "min": -3.2913754631491265, "scale": 0.03428516107447007, "original_dtype": "float32"}}, {"name": "block_2_project/kernel", "shape": [1, 1, 144, 24], "dtype": "float32", "quantization": {"dtype": "uint8", "min": -0.46451136458153813, "scale": 0.004147422898049448, "original_dtype": "float32"}}, {"name": "block_2_project_BN/gamma", "shape": [24], "dtype": "float32", "quantization": {"dtype": "uint8", "min": 1.4455021619796753, "scale": 0.024712606037364287, "original_dtype": "float32"}}, {"name": "block_2_project_BN/beta", "shape": [24], "dtype": "float32", "quantization": {"dtype": "uint8", "min": -0.006625267572920112, "scale": 5.662621857196677e-05, "original_dtype": "float32"}}, {"name": "block_3_expand/kernel", "shape": [1, 1, 24, 144], "dtype": "float32", "quantization": {"dtype": "uint8", "min": -0.9523457323803621, "scale": 0.007054412832447127, "original_dtype": "float32"}}, {"name": "block_3_expand_BN/gamma", "shape": [144], "dtype": "float32", "quantization": {"dtype": "uint8", "min": 0.2826366126537323, "scale": 0.014016158089918249, "original_dtype": "float32"}}, {"name": "block_3_expand_BN/beta", "shape": [144], "dtype": "float32", "quantization": {"dtype": "uint8", "min": -2.3538480721268, "scale": 0.02504093693751915, "original_dtype": "float32"}}, {"name": "block_3_depthwise/depthwise_kernel", "shape": [3, 3, 144, 1], "dtype": "float32", "quantization": {"dtype": "uint8", "min": -2.284218236511829, "scale": 0.017985970366234873, "original_dtype": "float32"}}, {"name": "block_3_depthwise_BN/gamma", "shape": [144], "dtype": "float32", "quantization": {"dtype": "uint8", "min": 0.3298283815383911, "scale": 0.011649509972217037, "original_dtype": "float32"}}, {"name": "block_3_depthwise_BN/beta", "shape": [144], "dtype": "float32", "quantization": {"dtype": "uint8", "min": -2.8256561410193353, "scale": 0.03105116638482786, "original_dtype": "float32"}}, {"name": "block_3_project/kernel", "shape": [1, 1, 144, 32], "dtype": "float32", "quantization": {"dtype": "uint8", "min": -0.6863794074339025, "scale": 0.006355364883647245, "original_dtype": "float32"}}, {"name": "block_3_project_BN/gamma", "shape": [32], "dtype": "float32", "quantization": {"dtype": "uint8", "min": 2.484084129333496, "scale": 0.01664571201100069, "original_dtype": "float32"}}, {"name": "block_3_project_BN/beta", "shape": [32], "dtype": "float32", "quantization": {"dtype": "uint8", "min": -0.005942130622033979, "scale": 5.8832976455781976e-05, "original_dtype": "float32"}}, {"name": "block_4_expand/kernel", "shape": [1, 1, 32, 192], "dtype": "float32", "quantization": {"dtype": "uint8", "min": -0.40439392749000996, "scale": 0.002868042038936241, "original_dtype": "float32"}}, {"name": "block_4_expand_BN/gamma", "shape": [192], "dtype": "float32", "quantization": {"dtype": "uint8", "min": 0.1312626749277115, "scale": 0.007678004281193603, "original_dtype": "float32"}}, {"name": "block_4_expand_BN/beta", "shape": [192], "dtype": "float32", "quantization": {"dtype": "uint8", "min": -2.609219087338915, "scale": 0.022493267994300993, "original_dtype": "float32"}}, {"name": "block_4_depthwise/depthwise_kernel", "shape": [3, 3, 192, 1], "dtype": "float32", "quantization": {"dtype": "uint8", "min": -4.979864240160175, "scale": 0.03716316597134459, "original_dtype": "float32"}}, {"name": "block_4_depthwise_BN/gamma", "shape": [192], "dtype": "float32", "quantization": {"dtype": "uint8", "min": 0.4036511182785034, "scale": 0.009333235142277737, "original_dtype": "float32"}}, {"name": "block_4_depthwise_BN/beta", "shape": [192], "dtype": "float32", "quantization": {"dtype": "uint8", "min": -2.9051775361977374, "scale": 0.02400973170411353, "original_dtype": "float32"}}, {"name": "block_4_project/kernel", "shape": [1, 1, 192, 32], "dtype": "float32", "quantization": {"dtype": "uint8", "min": -0.4972224621211781, "scale": 0.003429120428421918, "original_dtype": "float32"}}, {"name": "block_4_project_BN/gamma", "shape": [32], "dtype": "float32", "quantization": {"dtype": "uint8", "min": 0.9808117151260376, "scale": 0.019865903199887743, "original_dtype": "float32"}}, {"name": "block_4_project_BN/beta", "shape": [32], "dtype": "float32", "quantization": {"dtype": "uint8", "min": -0.006176024355797791, "scale": 4.863011303777788e-05, "original_dtype": "float32"}}, {"name": "block_5_expand/kernel", "shape": [1, 1, 32, 192], "dtype": "float32", "quantization": {"dtype": "uint8", "min": -0.3535099051746668, "scale": 0.0029215694642534444, "original_dtype": "float32"}}, {"name": "block_5_expand_BN/gamma", "shape": [192], "dtype": "float32", "quantization": {"dtype": "uint8", "min": 0.14203865826129913, "scale": 0.007173057338770698, "original_dtype": "float32"}}, {"name": "block_5_expand_BN/beta", "shape": [192], "dtype": "float32", "quantization": {"dtype": "uint8", "min": -1.5888787643582214, "scale": 0.019143117642870137, "original_dtype": "float32"}}, {"name": "block_5_depthwise/depthwise_kernel", "shape": [3, 3, 192, 1], "dtype": "float32", "quantization": {"dtype": "uint8", "min": -4.526471190359079, "scale": 0.0325645409378351, "original_dtype": "float32"}}, {"name": "block_5_depthwise_BN/gamma", "shape": [192], "dtype": "float32", "quantization": {"dtype": "uint8", "min": 0.42916548252105713, "scale": 0.008474388777040967, "original_dtype": "float32"}}, {"name": "block_5_depthwise_BN/beta", "shape": [192], "dtype": "float32", "quantization": {"dtype": "uint8", "min": -2.879433744093951, "scale": 0.02341003043978822, "original_dtype": "float32"}}, {"name": "block_5_project/kernel", "shape": [1, 1, 192, 32], "dtype": "float32", "quantization": {"dtype": "uint8", "min": -0.355678585580751, "scale": 0.0028006187841004017, "original_dtype": "float32"}}, {"name": "block_5_project_BN/gamma", "shape": [32], "dtype": "float32", "quantization": {"dtype": "uint8", "min": 0.9190748929977417, "scale": 0.018858842756233965, "original_dtype": "float32"}}, {"name": "block_5_project_BN/beta", "shape": [32], "dtype": "float32", "quantization": {"dtype": "uint8", "min": -0.005500635230804191, "scale": 4.3655835165112626e-05, "original_dtype": "float32"}}, {"name": "block_6_expand/kernel", "shape": [1, 1, 32, 192], "dtype": "float32", "quantization": {"dtype": "uint8", "min": -0.6459121858372407, "scale": 0.00512628718918445, "original_dtype": "float32"}}, {"name": "block_6_expand_BN/gamma", "shape": [192], "dtype": "float32", "quantization": {"dtype": "uint8", "min": 0.46143391728401184, "scale": 0.009211587789011936, "original_dtype": "float32"}}, {"name": "block_6_expand_BN/beta", "shape": [192], "dtype": "float32", "quantization": {"dtype": "uint8", "min": -1.8501464619356043, "scale": 0.015417887182796703, "original_dtype": "float32"}}, {"name": "block_6_depthwise/depthwise_kernel", "shape": [3, 3, 192, 1], "dtype": "float32", "quantization": {"dtype": "uint8", "min": -1.9912644554586971, "scale": 0.01659387046215581, "original_dtype": "float32"}}, {"name": "block_6_depthwise_BN/gamma", "shape": [192], "dtype": "float32", "quantization": {"dtype": "uint8", "min": 0.420177161693573, "scale": 0.00659263578115725, "original_dtype": "float32"}}, {"name": "block_6_depthwise_BN/beta", "shape": [192], "dtype": "float32", "quantization": {"dtype": "uint8", "min": -1.4894033544203815, "scale": 0.026129883410883886, "original_dtype": "float32"}}, {"name": "block_6_project/kernel", "shape": [1, 1, 192, 64], "dtype": "float32", "quantization": {"dtype": "uint8", "min": -0.8990953775013195, "scale": 0.00580061533871819, "original_dtype": "float32"}}, {"name": "block_6_project_BN/gamma", "shape": [64], "dtype": "float32", "quantization": {"dtype": "uint8", "min": 0.8708956241607666, "scale": 0.021319844675999063, "original_dtype": "float32"}}, {"name": "block_6_project_BN/beta", "shape": [64], "dtype": "float32", "quantization": {"dtype": "uint8", "min": -0.005802899913168421, "scale": 4.363082641480016e-05, "original_dtype": "float32"}}, {"name": "block_7_expand/kernel", "shape": [1, 1, 64, 384], "dtype": "float32", "quantization": {"dtype": "uint8", "min": -0.3262585808249081, "scale": 0.0023138906441482845, "original_dtype": "float32"}}, {"name": "block_7_expand_BN/gamma", "shape": [384], "dtype": "float32", "quantization": {"dtype": "uint8", "min": 0.1271103471517563, "scale": 0.005770611821436415, "original_dtype": "float32"}}, {"name": "block_7_expand_BN/beta", "shape": [384], "dtype": "float32", "quantization": {"dtype": "uint8", "min": -1.5297292115641574, "scale": 0.01936366090587541, "original_dtype": "float32"}}, {"name": "block_7_depthwise/depthwise_kernel", "shape": [3, 3, 384, 1], "dtype": "float32", "quantization": {"dtype": "uint8", "min": -3.284042624866261, "scale": 0.022965333041022804, "original_dtype": "float32"}}, {"name": "block_7_depthwise_BN/gamma", "shape": [384], "dtype": "float32", "quantization": {"dtype": "uint8", "min": 0.254349946975708, "scale": 0.009496442009420956, "original_dtype": "float32"}}, {"name": "block_7_depthwise_BN/beta", "shape": [384], "dtype": "float32", "quantization": {"dtype": "uint8", "min": -3.6179439067840575, "scale": 0.021157566706339517, "original_dtype": "float32"}}, {"name": "block_7_project/kernel", "shape": [1, 1, 384, 64], "dtype": "float32", "quantization": {"dtype": "uint8", "min": -0.5302280009961596, "scale": 0.004047541992337096, "original_dtype": "float32"}}, {"name": "block_7_project_BN/gamma", "shape": [64], "dtype": "float32", "quantization": {"dtype": "uint8", "min": 0.6177983283996582, "scale": 0.020012165518367993, "original_dtype": "float32"}}, {"name": "block_7_project_BN/beta", "shape": [64], "dtype": "float32", "quantization": {"dtype": "uint8", "min": -0.004176882530252139, "scale": 3.5099853195396126e-05, "original_dtype": "float32"}}, {"name": "block_8_expand/kernel", "shape": [1, 1, 64, 384], "dtype": "float32", "quantization": {"dtype": "uint8", "min": -0.4981741568621467, "scale": 0.00345954275598713, "original_dtype": "float32"}}, {"name": "block_8_expand_BN/gamma", "shape": [384], "dtype": "float32", "quantization": {"dtype": "uint8", "min": 0.08741652965545654, "scale": 0.005673127080879959, "original_dtype": "float32"}}, {"name": "block_8_expand_BN/beta", "shape": [384], "dtype": "float32", "quantization": {"dtype": "uint8", "min": -1.4621325745302087, "scale": 0.014476560143863454, "original_dtype": "float32"}}, {"name": "block_8_depthwise/depthwise_kernel", "shape": [3, 3, 384, 1], "dtype": "float32", "quantization": {"dtype": "uint8", "min": -3.421118626875036, "scale": 0.02693794194389792, "original_dtype": "float32"}}, {"name": "block_8_depthwise_BN/gamma", "shape": [384], "dtype": "float32", "quantization": {"dtype": "uint8", "min": 0.33077195286750793, "scale": 0.016062569968840656, "original_dtype": "float32"}}, {"name": "block_8_depthwise_BN/beta", "shape": [384], "dtype": "float32", "quantization": {"dtype": "uint8", "min": -6.190862871618831, "scale": 0.03275588820962345, "original_dtype": "float32"}}, {"name": "block_8_project/kernel", "shape": [1, 1, 384, 64], "dtype": "float32", "quantization": {"dtype": "uint8", "min": -0.2864459255162407, "scale": 0.0022554797284743363, "original_dtype": "float32"}}, {"name": "block_8_project_BN/gamma", "shape": [64], "dtype": "float32", "quantization": {"dtype": "uint8", "min": 0.6630716323852539, "scale": 0.01262059772715849, "original_dtype": "float32"}}, {"name": "block_8_project_BN/beta", "shape": [64], "dtype": "float32", "quantization": {"dtype": "uint8", "min": -0.004904859973227277, "scale": 3.6332296097979825e-05, "original_dtype": "float32"}}, {"name": "block_9_expand/kernel", "shape": [1, 1, 64, 384], "dtype": "float32", "quantization": {"dtype": "uint8", "min": -0.31728072201504426, "scale": 0.0030217211620480406, "original_dtype": "float32"}}, {"name": "block_9_expand_BN/gamma", "shape": [384], "dtype": "float32", "quantization": {"dtype": "uint8", "min": 0.22025920450687408, "scale": 0.00708263522269679, "original_dtype": "float32"}}, {"name": "block_9_expand_BN/beta", "shape": [384], "dtype": "float32", "quantization": {"dtype": "uint8", "min": -1.380420608146518, "scale": 0.0119001776564355, "original_dtype": "float32"}}, {"name": "block_9_depthwise/depthwise_kernel", "shape": [3, 3, 384, 1], "dtype": "float32", "quantization": {"dtype": "uint8", "min": -2.8299621890572944, "scale": 0.019789945378023036, "original_dtype": "float32"}}, {"name": "block_9_depthwise_BN/gamma", "shape": [384], "dtype": "float32", "quantization": {"dtype": "uint8", "min": 0.37345051765441895, "scale": 0.00773468672060499, "original_dtype": "float32"}}, {"name": "block_9_depthwise_BN/beta", "shape": [384], "dtype": "float32", "quantization": {"dtype": "uint8", "min": -4.168074959399654, "scale": 0.025108885297588274, "original_dtype": "float32"}}, {"name": "block_9_project/kernel", "shape": [1, 1, 384, 64], "dtype": "float32", "quantization": {"dtype": "uint8", "min": -0.49887640522975546, "scale": 0.0032820816133536544, "original_dtype": "float32"}}, {"name": "block_9_project_BN/gamma", "shape": [64], "dtype": "float32", "quantization": {"dtype": "uint8", "min": 0.6962518095970154, "scale": 0.012095615209317675, "original_dtype": "float32"}}, {"name": "block_9_project_BN/beta", "shape": [64], "dtype": "float32", "quantization": {"dtype": "uint8", "min": -0.00399385870927397, "scale": 2.8941005139666446e-05, "original_dtype": "float32"}}, {"name": "block_10_expand/kernel", "shape": [1, 1, 64, 384], "dtype": "float32", "quantization": {"dtype": "uint8", "min": -0.4761982343944849, "scale": 0.003809585875155879, "original_dtype": "float32"}}, {"name": "block_10_expand_BN/gamma", "shape": [384], "dtype": "float32", "quantization": {"dtype": "uint8", "min": 0.3168369233608246, "scale": 0.006766412421768787, "original_dtype": "float32"}}, {"name": "block_10_expand_BN/beta", "shape": [384], "dtype": "float32", "quantization": {"dtype": "uint8", "min": -1.9368642568588255, "scale": 0.016276170225704416, "original_dtype": "float32"}}, {"name": "block_10_depthwise/depthwise_kernel", "shape": [3, 3, 384, 1], "dtype": "float32", "quantization": {"dtype": "uint8", "min": -4.09272429522346, "scale": 0.03410603579352884, "original_dtype": "float32"}}, {"name": "block_10_depthwise_BN/gamma", "shape": [384], "dtype": "float32", "quantization": {"dtype": "uint8", "min": 0.3947252929210663, "scale": 0.007295111230775422, "original_dtype": "float32"}}, {"name": "block_10_depthwise_BN/beta", "shape": [384], "dtype": "float32", "quantization": {"dtype": "uint8", "min": -1.670700746424058, "scale": 0.02320417703366747, "original_dtype": "float32"}}, {"name": "block_10_project/kernel", "shape": [1, 1, 384, 96], "dtype": "float32", "quantization": {"dtype": "uint8", "min": -0.36699118567448036, "scale": 0.00333628350613164, "original_dtype": "float32"}}, {"name": "block_10_project_BN/gamma", "shape": [96], "dtype": "float32", "quantization": {"dtype": "uint8", "min": 1.8237571716308594, "scale": 0.010015117420869715, "original_dtype": "float32"}}, {"name": "block_10_project_BN/beta", "shape": [96], "dtype": "float32", "quantization": {"dtype": "uint8", "min": -0.007311846215423999, "scale": 5.337114025856934e-05, "original_dtype": "float32"}}, {"name": "block_11_expand/kernel", "shape": [1, 1, 96, 576], "dtype": "float32", "quantization": {"dtype": "uint8", "min": -0.2976695640414369, "scale": 0.002325543469073726, "original_dtype": "float32"}}, {"name": "block_11_expand_BN/gamma", "shape": [576], "dtype": "float32", "quantization": {"dtype": "uint8", "min": 0.0032904082909226418, "scale": 0.011152202033383005, "original_dtype": "float32"}}, {"name": "block_11_expand_BN/beta", "shape": [576], "dtype": "float32", "quantization": {"dtype": "uint8", "min": -1.6863113711862003, "scale": 0.018736793013180004, "original_dtype": "float32"}}, {"name": "block_11_depthwise/depthwise_kernel", "shape": [3, 3, 576, 1], "dtype": "float32", "quantization": {"dtype": "uint8", "min": -3.1217324593487907, "scale": 0.024199476429060392, "original_dtype": "float32"}}, {"name": "block_11_depthwise_BN/gamma", "shape": [576], "dtype": "float32", "quantization": {"dtype": "uint8", "min": 0.2528846263885498, "scale": 0.012029084037331973, "original_dtype": "float32"}}, {"name": "block_11_depthwise_BN/beta", "shape": [576], "dtype": "float32", "quantization": {"dtype": "uint8", "min": -3.5119355285868923, "scale": 0.02422024502473719, "original_dtype": "float32"}}, {"name": "block_11_project/kernel", "shape": [1, 1, 576, 96], "dtype": "float32", "quantization": {"dtype": "uint8", "min": -0.24184934111202466, "scale": 0.0019503979121937472, "original_dtype": "float32"}}, {"name": "block_11_project_BN/gamma", "shape": [96], "dtype": "float32", "quantization": {"dtype": "uint8", "min": 0.64118891954422, "scale": 0.008184527182111554, "original_dtype": "float32"}}, {"name": "block_11_project_BN/beta", "shape": [96], "dtype": "float32", "quantization": {"dtype": "uint8", "min": -0.006546047178334465, "scale": 4.223256244086752e-05, "original_dtype": "float32"}}, {"name": "block_12_expand/kernel", "shape": [1, 1, 96, 576], "dtype": "float32", "quantization": {"dtype": "uint8", "min": -0.24735285505360247, "scale": 0.002044238471517376, "original_dtype": "float32"}}, {"name": "block_12_expand_BN/gamma", "shape": [576], "dtype": "float32", "quantization": {"dtype": "uint8", "min": 0.22659307718276978, "scale": 0.010022947601243561, "original_dtype": "float32"}}, {"name": "block_12_expand_BN/beta", "shape": [576], "dtype": "float32", "quantization": {"dtype": "uint8", "min": -1.9294257065829108, "scale": 0.016490818004982144, "original_dtype": "float32"}}, {"name": "block_12_depthwise/depthwise_kernel", "shape": [3, 3, 576, 1], "dtype": "float32", "quantization": {"dtype": "uint8", "min": -3.0620253703173472, "scale": 0.02489451520583209, "original_dtype": "float32"}}, {"name": "block_12_depthwise_BN/gamma", "shape": [576], "dtype": "float32", "quantization": {"dtype": "uint8", "min": 0.20915645360946655, "scale": 0.018319520997066123, "original_dtype": "float32"}}, {"name": "block_12_depthwise_BN/beta", "shape": [576], "dtype": "float32", "quantization": {"dtype": "uint8", "min": -5.975333883248123, "scale": 0.03643496270273246, "original_dtype": "float32"}}, {"name": "block_12_project/kernel", "shape": [1, 1, 576, 96], "dtype": "float32", "quantization": {"dtype": "uint8", "min": -0.46087321767620015, "scale": 0.0032455860399732404, "original_dtype": "float32"}}, {"name": "block_12_project_BN/gamma", "shape": [96], "dtype": "float32", "quantization": {"dtype": "uint8", "min": 0.765470027923584, "scale": 0.013365614647958792, "original_dtype": "float32"}}, {"name": "block_12_project_BN/beta", "shape": [96], "dtype": "float32", "quantization": {"dtype": "uint8", "min": -0.005531870632195005, "scale": 3.951336165853575e-05, "original_dtype": "float32"}}, {"name": "block_13_expand/kernel", "shape": [1, 1, 96, 576], "dtype": "float32", "quantization": {"dtype": "uint8", "min": -0.4111115196171929, "scale": 0.0031623963047476378, "original_dtype": "float32"}}, {"name": "block_13_expand_BN/gamma", "shape": [576], "dtype": "float32", "quantization": {"dtype": "uint8", "min": 0.10432848334312439, "scale": 0.00711630290629817, "original_dtype": "float32"}}, {"name": "block_13_expand_BN/beta", "shape": [576], "dtype": "float32", "quantization": {"dtype": "uint8", "min": -2.827550215814628, "scale": 0.019773078432270125, "original_dtype": "float32"}}, {"name": "block_13_depthwise/depthwise_kernel", "shape": [3, 3, 576, 1], "dtype": "float32", "quantization": {"dtype": "uint8", "min": -1.4747610933640425, "scale": 0.01117243252548517, "original_dtype": "float32"}}, {"name": "block_13_depthwise_BN/gamma", "shape": [576], "dtype": "float32", "quantization": {"dtype": "uint8", "min": 0.32663747668266296, "scale": 0.005659161946352791, "original_dtype": "float32"}}, {"name": "block_13_depthwise_BN/beta", "shape": [576], "dtype": "float32", "quantization": {"dtype": "uint8", "min": -2.2424077912872913, "scale": 0.02701696134081074, "original_dtype": "float32"}}, {"name": "block_13_project/kernel", "shape": [1, 1, 576, 160], "dtype": "float32", "quantization": {"dtype": "uint8", "min": -0.3789909949489668, "scale": 0.002893061030144785, "original_dtype": "float32"}}, {"name": "block_13_project_BN/gamma", "shape": [160], "dtype": "float32", "quantization": {"dtype": "uint8", "min": 1.5424058437347412, "scale": 0.0059573753207337625, "original_dtype": "float32"}}, {"name": "block_13_project_BN/beta", "shape": [160], "dtype": "float32", "quantization": {"dtype": "uint8", "min": -0.005037874750354711, "scale": 4.579886136686101e-05, "original_dtype": "float32"}}, {"name": "block_14_expand/kernel", "shape": [1, 1, 160, 960], "dtype": "float32", "quantization": {"dtype": "uint8", "min": -0.2877034432747785, "scale": 0.002230259250192081, "original_dtype": "float32"}}, {"name": "block_14_expand_BN/gamma", "shape": [960], "dtype": "float32", "quantization": {"dtype": "uint8", "min": 0.2862638831138611, "scale": 0.008837694514031503, "original_dtype": "float32"}}, {"name": "block_14_expand_BN/beta", "shape": [960], "dtype": "float32", "quantization": {"dtype": "uint8", "min": -1.875371271021226, "scale": 0.015892976873061238, "original_dtype": "float32"}}, {"name": "block_14_depthwise/depthwise_kernel", "shape": [3, 3, 960, 1], "dtype": "float32", "quantization": {"dtype": "uint8", "min": -3.834769484576057, "scale": 0.026630343642889284, "original_dtype": "float32"}}, {"name": "block_14_depthwise_BN/gamma", "shape": [960], "dtype": "float32", "quantization": {"dtype": "uint8", "min": 0.2768573760986328, "scale": 0.017537722868077896, "original_dtype": "float32"}}, {"name": "block_14_depthwise_BN/beta", "shape": [960], "dtype": "float32", "quantization": {"dtype": "uint8", "min": -5.42600661165574, "scale": 0.032884888555489336, "original_dtype": "float32"}}, {"name": "block_14_project/kernel", "shape": [1, 1, 960, 160], "dtype": "float32", "quantization": {"dtype": "uint8", "min": -0.2935465862938002, "scale": 0.0020527733307258754, "original_dtype": "float32"}}, {"name": "block_14_project_BN/gamma", "shape": [160], "dtype": "float32", "quantization": {"dtype": "uint8", "min": 0.8497422933578491, "scale": 0.006896750599730248, "original_dtype": "float32"}}, {"name": "block_14_project_BN/beta", "shape": [160], "dtype": "float32", "quantization": {"dtype": "uint8", "min": -0.003993812261843214, "scale": 3.120165829565011e-05, "original_dtype": "float32"}}, {"name": "block_15_expand/kernel", "shape": [1, 1, 160, 960], "dtype": "float32", "quantization": {"dtype": "uint8", "min": -0.2832355966754988, "scale": 0.0023216032514385147, "original_dtype": "float32"}}, {"name": "block_15_expand_BN/gamma", "shape": [960], "dtype": "float32", "quantization": {"dtype": "uint8", "min": 0.17679639160633087, "scale": 0.010365385343046749, "original_dtype": "float32"}}, {"name": "block_15_expand_BN/beta", "shape": [960], "dtype": "float32", "quantization": {"dtype": "uint8", "min": -2.0702267123203653, "scale": 0.018320590374516506, "original_dtype": "float32"}}, {"name": "block_15_depthwise/depthwise_kernel", "shape": [3, 3, 960, 1], "dtype": "float32", "quantization": {"dtype": "uint8", "min": -3.7889699374928196, "scale": 0.028488495770622704, "original_dtype": "float32"}}, {"name": "block_15_depthwise_BN/gamma", "shape": [960], "dtype": "float32", "quantization": {"dtype": "uint8", "min": 0.15493538975715637, "scale": 0.017099795505112293, "original_dtype": "float32"}}, {"name": "block_15_depthwise_BN/beta", "shape": [960], "dtype": "float32", "quantization": {"dtype": "uint8", "min": -6.166383395475499, "scale": 0.03585106625276453, "original_dtype": "float32"}}, {"name": "block_15_project/kernel", "shape": [1, 1, 960, 160], "dtype": "float32", "quantization": {"dtype": "uint8", "min": -0.44079273308024686, "scale": 0.0033393388869715672, "original_dtype": "float32"}}, {"name": "block_15_project_BN/gamma", "shape": [160], "dtype": "float32", "quantization": {"dtype": "uint8", "min": 1.260676383972168, "scale": 0.010850003186394187, "original_dtype": "float32"}}, {"name": "block_15_project_BN/beta", "shape": [160], "dtype": "float32", "quantization": {"dtype": "uint8", "min": -0.0027016554739983643, "scale": 2.0161608014913166e-05, "original_dtype": "float32"}}, {"name": "block_16_expand/kernel", "shape": [1, 1, 160, 960], "dtype": "float32", "quantization": {"dtype": "uint8", "min": -0.3805746902437771, "scale": 0.003094103172713635, "original_dtype": "float32"}}, {"name": "block_16_expand_BN/gamma", "shape": [960], "dtype": "float32", "quantization": {"dtype": "uint8", "min": 0.2626304626464844, "scale": 0.013375478632309857, "original_dtype": "float32"}}, {"name": "block_16_expand_BN/beta", "shape": [960], "dtype": "float32", "quantization": {"dtype": "uint8", "min": -1.8358743602154302, "scale": 0.015558257289961273, "original_dtype": "float32"}}, {"name": "block_16_depthwise/depthwise_kernel", "shape": [3, 3, 960, 1], "dtype": "float32", "quantization": {"dtype": "uint8", "min": -2.806615717270795, "scale": 0.023388464310589958, "original_dtype": "float32"}}, {"name": "block_16_depthwise_BN/gamma", "shape": [960], "dtype": "float32", "quantization": {"dtype": "uint8", "min": 0.44747474789619446, "scale": 0.011894768242742501, "original_dtype": "float32"}}, {"name": "block_16_depthwise_BN/beta", "shape": [960], "dtype": "float32", "quantization": {"dtype": "uint8", "min": -3.725033521652222, "scale": 0.032391595840454104, "original_dtype": "float32"}}, {"name": "block_16_project/kernel", "shape": [1, 1, 960, 320], "dtype": "float32", "quantization": {"dtype": "uint8", "min": -0.4366366377063826, "scale": 0.004005840712902593, "original_dtype": "float32"}}, {"name": "block_16_project_BN/gamma", "shape": [320], "dtype": "float32", "quantization": {"dtype": "uint8", "min": 1.742741584777832, "scale": 0.006935147678150851, "original_dtype": "float32"}}, {"name": "block_16_project_BN/beta", "shape": [320], "dtype": "float32", "quantization": {"dtype": "uint8", "min": -0.002220634107167522, "scale": 2.0372789974013963e-05, "original_dtype": "float32"}}, {"name": "Conv_1/kernel", "shape": [1, 1, 320, 1280], "dtype": "float32", "quantization": {"dtype": "uint8", "min": -0.14512921256177563, "scale": 0.0011518191473156797, "original_dtype": "float32"}}, {"name": "Conv_1_bn/gamma", "shape": [1280], "dtype": "float32", "quantization": {"dtype": "uint8", "min": 4.0611042976379395, "scale": 0.0042826353334913065, "original_dtype": "float32"}}, {"name": "Conv_1_bn/beta", "shape": [1280], "dtype": "float32", "quantization": {"dtype": "uint8", "min": -5.497544765472412, "scale": 0.00713806900323606, "original_dtype": "float32"}}, {"name": "bn_Conv1/moving_mean", "shape": [32], "dtype": "float32", "quantization": {"dtype": "uint8", "min": -0.2388407318615446, "scale": 0.0022321563725378, "original_dtype": "float32"}}, {"name": "bn_Conv1/moving_variance", "shape": [32], "dtype": "float32", "quantization": {"dtype": "uint8", "min": 3.907289699258179e-36, "scale": 0.005602688415377748, "original_dtype": "float32"}}, {"name": "expanded_conv_depthwise_BN/moving_mean", "shape": [32], "dtype": "float32", "quantization": {"dtype": "uint8", "min": -13.662699740540749, "scale": 0.09972773533241422, "original_dtype": "float32"}}, {"name": "expanded_conv_depthwise_BN/moving_variance", "shape": [32], "dtype": "float32", "quantization": {"dtype": "uint8", "min": 3.908455938312904e-36, "scale": 1.6299066281786152, "original_dtype": "float32"}}, {"name": "expanded_conv_project_BN/moving_mean", "shape": [16], "dtype": "float32", "quantization": {"dtype": "uint8", "min": -4.357224674785838, "scale": 0.029243118622723746, "original_dtype": "float32"}}, {"name": "expanded_conv_project_BN/moving_variance", "shape": [16], "dtype": "float32", "quantization": {"dtype": "uint8", "min": 0.21818426251411438, "scale": 0.0032110652502845317, "original_dtype": "float32"}}, {"name": "block_1_expand_BN/moving_mean", "shape": [96], "dtype": "float32", "quantization": {"dtype": "uint8", "min": -0.05371397143485499, "scale": 0.00036790391393736295, "original_dtype": "float32"}}, {"name": "block_1_expand_BN/moving_variance", "shape": [96], "dtype": "float32", "quantization": {"dtype": "uint8", "min": 1.6491490602493286, "scale": 0.0584666602751788, "original_dtype": "float32"}}, {"name": "block_1_depthwise_BN/moving_mean", "shape": [96], "dtype": "float32", "quantization": {"dtype": "uint8", "min": -28.681035838407627, "scale": 0.2655651466519225, "original_dtype": "float32"}}, {"name": "block_1_depthwise_BN/moving_variance", "shape": [96], "dtype": "float32", "quantization": {"dtype": "uint8", "min": 0.16565752029418945, "scale": 0.8500873920964259, "original_dtype": "float32"}}, {"name": "block_1_project_BN/moving_mean", "shape": [24], "dtype": "float32", "quantization": {"dtype": "uint8", "min": -5.111529929965151, "scale": 0.03194706206228219, "original_dtype": "float32"}}, {"name": "block_1_project_BN/moving_variance", "shape": [24], "dtype": "float32", "quantization": {"dtype": "uint8", "min": 0.21607929468154907, "scale": 0.01081465809952979, "original_dtype": "float32"}}, {"name": "block_2_expand_BN/moving_mean", "shape": [144], "dtype": "float32", "quantization": {"dtype": "uint8", "min": -0.007752376210455801, "scale": 6.056543914418595e-05, "original_dtype": "float32"}}, {"name": "block_2_expand_BN/moving_variance", "shape": [144], "dtype": "float32", "quantization": {"dtype": "uint8", "min": 1.3055187197026178e-34, "scale": 0.07765527613022748, "original_dtype": "float32"}}, {"name": "block_2_depthwise_BN/moving_mean", "shape": [144], "dtype": "float32", "quantization": {"dtype": "uint8", "min": -11.407193529839608, "scale": 0.06003786068336636, "original_dtype": "float32"}}, {"name": "block_2_depthwise_BN/moving_variance", "shape": [144], "dtype": "float32", "quantization": {"dtype": "uint8", "min": 3.917904591177378e-36, "scale": 0.1423613155589384, "original_dtype": "float32"}}, {"name": "block_2_project_BN/moving_mean", "shape": [24], "dtype": "float32", "quantization": {"dtype": "uint8", "min": -4.285556035883287, "scale": 0.03726570465985467, "original_dtype": "float32"}}, {"name": "block_2_project_BN/moving_variance", "shape": [24], "dtype": "float32", "quantization": {"dtype": "uint8", "min": 0.43833276629447937, "scale": 0.004501188619464052, "original_dtype": "float32"}}, {"name": "block_3_expand_BN/moving_mean", "shape": [144], "dtype": "float32", "quantization": {"dtype": "uint8", "min": -0.008796306757950314, "scale": 7.583023067198547e-05, "original_dtype": "float32"}}, {"name": "block_3_expand_BN/moving_variance", "shape": [144], "dtype": "float32", "quantization": {"dtype": "uint8", "min": 2.6272966861724854, "scale": 0.13272808205847647, "original_dtype": "float32"}}, {"name": "block_3_depthwise_BN/moving_mean", "shape": [144], "dtype": "float32", "quantization": {"dtype": "uint8", "min": -28.714180404064702, "scale": 0.18525277680041743, "original_dtype": "float32"}}, {"name": "block_3_depthwise_BN/moving_variance", "shape": [144], "dtype": "float32", "quantization": {"dtype": "uint8", "min": 0.14828002452850342, "scale": 0.42210258455837474, "original_dtype": "float32"}}, {"name": "block_3_project_BN/moving_mean", "shape": [32], "dtype": "float32", "quantization": {"dtype": "uint8", "min": -3.2429207353030933, "scale": 0.037708380643059224, "original_dtype": "float32"}}, {"name": "block_3_project_BN/moving_variance", "shape": [32], "dtype": "float32", "quantization": {"dtype": "uint8", "min": 0.4967164397239685, "scale": 0.029375186854717777, "original_dtype": "float32"}}, {"name": "block_4_expand_BN/moving_mean", "shape": [192], "dtype": "float32", "quantization": {"dtype": "uint8", "min": -0.0032701678574085236, "scale": 2.4045351892709732e-05, "original_dtype": "float32"}}, {"name": "block_4_expand_BN/moving_variance", "shape": [192], "dtype": "float32", "quantization": {"dtype": "uint8", "min": 1.3640755414962769, "scale": 0.08287530459609686, "original_dtype": "float32"}}, {"name": "block_4_depthwise_BN/moving_mean", "shape": [192], "dtype": "float32", "quantization": {"dtype": "uint8", "min": -5.349441303926356, "scale": 0.04457867753271963, "original_dtype": "float32"}}, {"name": "block_4_depthwise_BN/moving_variance", "shape": [192], "dtype": "float32", "quantization": {"dtype": "uint8", "min": 0.021642984822392464, "scale": 0.04836969071013086, "original_dtype": "float32"}}, {"name": "block_4_project_BN/moving_mean", "shape": [32], "dtype": "float32", "quantization": {"dtype": "uint8", "min": -2.7747239393346446, "scale": 0.02010669521256989, "original_dtype": "float32"}}, {"name": "block_4_project_BN/moving_variance", "shape": [32], "dtype": "float32", "quantization": {"dtype": "uint8", "min": 0.13456976413726807, "scale": 0.0034173815858130363, "original_dtype": "float32"}}, {"name": "block_5_expand_BN/moving_mean", "shape": [192], "dtype": "float32", "quantization": {"dtype": "uint8", "min": -0.007235868771870931, "scale": 5.653022478024165e-05, "original_dtype": "float32"}}, {"name": "block_5_expand_BN/moving_variance", "shape": [192], "dtype": "float32", "quantization": {"dtype": "uint8", "min": 1.7384567260742188, "scale": 0.06378974166570925, "original_dtype": "float32"}}, {"name": "block_5_depthwise_BN/moving_mean", "shape": [192], "dtype": "float32", "quantization": {"dtype": "uint8", "min": -18.277105903625486, "scale": 0.10326048533121744, "original_dtype": "float32"}}, {"name": "block_5_depthwise_BN/moving_variance", "shape": [192], "dtype": "float32", "quantization": {"dtype": "uint8", "min": 0.05469737946987152, "scale": 0.043754019047699724, "original_dtype": "float32"}}, {"name": "block_5_project_BN/moving_mean", "shape": [32], "dtype": "float32", "quantization": {"dtype": "uint8", "min": -1.9170898507623113, "scale": 0.0172710797365974, "original_dtype": "float32"}}, {"name": "block_5_project_BN/moving_variance", "shape": [32], "dtype": "float32", "quantization": {"dtype": "uint8", "min": 0.13418078422546387, "scale": 0.0023325475991940966, "original_dtype": "float32"}}, {"name": "block_6_expand_BN/moving_mean", "shape": [192], "dtype": "float32", "quantization": {"dtype": "uint8", "min": -0.01579304424424966, "scale": 0.00013271465751470303, "original_dtype": "float32"}}, {"name": "block_6_expand_BN/moving_variance", "shape": [192], "dtype": "float32", "quantization": {"dtype": "uint8", "min": 2.7206647396087646, "scale": 0.11472150858710795, "original_dtype": "float32"}}, {"name": "block_6_depthwise_BN/moving_mean", "shape": [192], "dtype": "float32", "quantization": {"dtype": "uint8", "min": -15.642455056134391, "scale": 0.12125934152042164, "original_dtype": "float32"}}, {"name": "block_6_depthwise_BN/moving_variance", "shape": [192], "dtype": "float32", "quantization": {"dtype": "uint8", "min": 0.3505472242832184, "scale": 0.322894887713825, "original_dtype": "float32"}}, {"name": "block_6_project_BN/moving_mean", "shape": [64], "dtype": "float32", "quantization": {"dtype": "uint8", "min": -6.102350981095258, "scale": 0.04327908497230679, "original_dtype": "float32"}}, {"name": "block_6_project_BN/moving_variance", "shape": [64], "dtype": "float32", "quantization": {"dtype": "uint8", "min": 0.17547668516635895, "scale": 0.04159654489919251, "original_dtype": "float32"}}, {"name": "block_7_expand_BN/moving_mean", "shape": [384], "dtype": "float32", "quantization": {"dtype": "uint8", "min": -0.0028730177119666456, "scale": 2.0232519098356658e-05, "original_dtype": "float32"}}, {"name": "block_7_expand_BN/moving_variance", "shape": [384], "dtype": "float32", "quantization": {"dtype": "uint8", "min": 0.8731621503829956, "scale": 0.023574257364460068, "original_dtype": "float32"}}, {"name": "block_7_depthwise_BN/moving_mean", "shape": [384], "dtype": "float32", "quantization": {"dtype": "uint8", "min": -21.468313248017257, "scale": 0.09457406717188219, "original_dtype": "float32"}}, {"name": "block_7_depthwise_BN/moving_variance", "shape": [384], "dtype": "float32", "quantization": {"dtype": "uint8", "min": 0.0009199814521707594, "scale": 0.05132895948196414, "original_dtype": "float32"}}, {"name": "block_7_project_BN/moving_mean", "shape": [64], "dtype": "float32", "quantization": {"dtype": "uint8", "min": -0.8779203302720013, "scale": 0.013301823185939414, "original_dtype": "float32"}}, {"name": "block_7_project_BN/moving_variance", "shape": [64], "dtype": "float32", "quantization": {"dtype": "uint8", "min": 0.11792795360088348, "scale": 0.006540518473176395, "original_dtype": "float32"}}, {"name": "block_8_expand_BN/moving_mean", "shape": [384], "dtype": "float32", "quantization": {"dtype": "uint8", "min": -0.005369761892977882, "scale": 3.781522459843579e-05, "original_dtype": "float32"}}, {"name": "block_8_expand_BN/moving_variance", "shape": [384], "dtype": "float32", "quantization": {"dtype": "uint8", "min": 1.082456350326538, "scale": 0.04236794359543744, "original_dtype": "float32"}}, {"name": "block_8_depthwise_BN/moving_mean", "shape": [384], "dtype": "float32", "quantization": {"dtype": "uint8", "min": -9.388202382069007, "scale": 0.045796109180824426, "original_dtype": "float32"}}, {"name": "block_8_depthwise_BN/moving_variance", "shape": [384], "dtype": "float32", "quantization": {"dtype": "uint8", "min": 0.018067393451929092, "scale": 0.06557557709953364, "original_dtype": "float32"}}, {"name": "block_8_project_BN/moving_mean", "shape": [64], "dtype": "float32", "quantization": {"dtype": "uint8", "min": -1.1028786023457844, "scale": 0.00810940148783665, "original_dtype": "float32"}}, {"name": "block_8_project_BN/moving_variance", "shape": [64], "dtype": "float32", "quantization": {"dtype": "uint8", "min": 0.08486074954271317, "scale": 0.001586325466632843, "original_dtype": "float32"}}, {"name": "block_9_expand_BN/moving_mean", "shape": [384], "dtype": "float32", "quantization": {"dtype": "uint8", "min": -0.006358285394369387, "scale": 4.8536529728010586e-05, "original_dtype": "float32"}}, {"name": "block_9_expand_BN/moving_variance", "shape": [384], "dtype": "float32", "quantization": {"dtype": "uint8", "min": 1.5383261442184448, "scale": 0.04634298483530681, "original_dtype": "float32"}}, {"name": "block_9_depthwise_BN/moving_mean", "shape": [384], "dtype": "float32", "quantization": {"dtype": "uint8", "min": -4.616242801441866, "scale": 0.028851517509011663, "original_dtype": "float32"}}, {"name": "block_9_depthwise_BN/moving_variance", "shape": [384], "dtype": "float32", "quantization": {"dtype": "uint8", "min": 0.08270562440156937, "scale": 0.021505469405183605, "original_dtype": "float32"}}, {"name": "block_9_project_BN/moving_mean", "shape": [64], "dtype": "float32", "quantization": {"dtype": "uint8", "min": -1.7124339790905223, "scale": 0.01057058011784273, "original_dtype": "float32"}}, {"name": "block_9_project_BN/moving_variance", "shape": [64], "dtype": "float32", "quantization": {"dtype": "uint8", "min": 0.07623931020498276, "scale": 0.0011270010296036215, "original_dtype": "float32"}}, {"name": "block_10_expand_BN/moving_mean", "shape": [384], "dtype": "float32", "quantization": {"dtype": "uint8", "min": -0.016679711742144006, "scale": 0.00011999792620247486, "original_dtype": "float32"}}, {"name": "block_10_expand_BN/moving_variance", "shape": [384], "dtype": "float32", "quantization": {"dtype": "uint8", "min": 2.5221614837646484, "scale": 0.08197173324285768, "original_dtype": "float32"}}, {"name": "block_10_depthwise_BN/moving_mean", "shape": [384], "dtype": "float32", "quantization": {"dtype": "uint8", "min": -10.720262035669066, "scale": 0.06343350316963944, "original_dtype": "float32"}}, {"name": "block_10_depthwise_BN/moving_variance", "shape": [384], "dtype": "float32", "quantization": {"dtype": "uint8", "min": 0.2261006385087967, "scale": 0.08121434491054684, "original_dtype": "float32"}}, {"name": "block_10_project_BN/moving_mean", "shape": [96], "dtype": "float32", "quantization": {"dtype": "uint8", "min": -4.48044236314063, "scale": 0.030687961391374176, "original_dtype": "float32"}}, {"name": "block_10_project_BN/moving_variance", "shape": [96], "dtype": "float32", "quantization": {"dtype": "uint8", "min": 0.4458947479724884, "scale": 0.019868355054481358, "original_dtype": "float32"}}, {"name": "block_11_expand_BN/moving_mean", "shape": [576], "dtype": "float32", "quantization": {"dtype": "uint8", "min": -0.0033660420472277144, "scale": 2.589263113252088e-05, "original_dtype": "float32"}}, {"name": "block_11_expand_BN/moving_variance", "shape": [576], "dtype": "float32", "quantization": {"dtype": "uint8", "min": 1.5925837241310102e-14, "scale": 0.030329165739171583, "original_dtype": "float32"}}, {"name": "block_11_depthwise_BN/moving_mean", "shape": [576], "dtype": "float32", "quantization": {"dtype": "uint8", "min": -7.857959228403428, "scale": 0.0438992135664996, "original_dtype": "float32"}}, {"name": "block_11_depthwise_BN/moving_variance", "shape": [576], "dtype": "float32", "quantization": {"dtype": "uint8", "min": 8.72388991410844e-05, "scale": 0.048394829706618715, "original_dtype": "float32"}}, {"name": "block_11_project_BN/moving_mean", "shape": [96], "dtype": "float32", "quantization": {"dtype": "uint8", "min": -2.0532546688528623, "scale": 0.01669312738904766, "original_dtype": "float32"}}, {"name": "block_11_project_BN/moving_variance", "shape": [96], "dtype": "float32", "quantization": {"dtype": "uint8", "min": 0.09470007568597794, "scale": 0.0009992813070615132, "original_dtype": "float32"}}, {"name": "block_12_expand_BN/moving_mean", "shape": [576], "dtype": "float32", "quantization": {"dtype": "uint8", "min": -1.293167428409352, "scale": 0.008980329363953833, "original_dtype": "float32"}}, {"name": "block_12_expand_BN/moving_variance", "shape": [576], "dtype": "float32", "quantization": {"dtype": "uint8", "min": 0.7438803911209106, "scale": 0.0244491460276585, "original_dtype": "float32"}}, {"name": "block_12_depthwise_BN/moving_mean", "shape": [576], "dtype": "float32", "quantization": {"dtype": "uint8", "min": -10.872096468420589, "scale": 0.05575434086369533, "original_dtype": "float32"}}, {"name": "block_12_depthwise_BN/moving_variance", "shape": [576], "dtype": "float32", "quantization": {"dtype": "uint8", "min": 9.440410212846473e-05, "scale": 0.033742455913035846, "original_dtype": "float32"}}, {"name": "block_12_project_BN/moving_mean", "shape": [96], "dtype": "float32", "quantization": {"dtype": "uint8", "min": -1.9997616711784811, "scale": 0.013887233827628341, "original_dtype": "float32"}}, {"name": "block_12_project_BN/moving_variance", "shape": [96], "dtype": "float32", "quantization": {"dtype": "uint8", "min": 0.06594741344451904, "scale": 0.0011362363310421213, "original_dtype": "float32"}}, {"name": "block_13_expand_BN/moving_mean", "shape": [576], "dtype": "float32", "quantization": {"dtype": "uint8", "min": -1.1540381936465993, "scale": 0.010396740483302696, "original_dtype": "float32"}}, {"name": "block_13_expand_BN/moving_variance", "shape": [576], "dtype": "float32", "quantization": {"dtype": "uint8", "min": 0.7096562385559082, "scale": 0.04573396607941272, "original_dtype": "float32"}}, {"name": "block_13_depthwise_BN/moving_mean", "shape": [576], "dtype": "float32", "quantization": {"dtype": "uint8", "min": -8.012809012917911, "scale": 0.0482699338127585, "original_dtype": "float32"}}, {"name": "block_13_depthwise_BN/moving_variance", "shape": [576], "dtype": "float32", "quantization": {"dtype": "uint8", "min": 0.03586001694202423, "scale": 0.06918178650678374, "original_dtype": "float32"}}, {"name": "block_13_project_BN/moving_mean", "shape": [160], "dtype": "float32", "quantization": {"dtype": "uint8", "min": -4.810114701588948, "scale": 0.038480917612711586, "original_dtype": "float32"}}, {"name": "block_13_project_BN/moving_variance", "shape": [160], "dtype": "float32", "quantization": {"dtype": "uint8", "min": 0.16144594550132751, "scale": 0.011570293412489049, "original_dtype": "float32"}}, {"name": "block_14_expand_BN/moving_mean", "shape": [960], "dtype": "float32", "quantization": {"dtype": "uint8", "min": -0.0034733900033375796, "scale": 2.968709404562034e-05, "original_dtype": "float32"}}, {"name": "block_14_expand_BN/moving_variance", "shape": [960], "dtype": "float32", "quantization": {"dtype": "uint8", "min": 0.5245687961578369, "scale": 0.030419251498054054, "original_dtype": "float32"}}, {"name": "block_14_depthwise_BN/moving_mean", "shape": [960], "dtype": "float32", "quantization": {"dtype": "uint8", "min": -5.2166254193175075, "scale": 0.045361960167978325, "original_dtype": "float32"}}, {"name": "block_14_depthwise_BN/moving_variance", "shape": [960], "dtype": "float32", "quantization": {"dtype": "uint8", "min": 5.045577563578263e-05, "scale": 0.07475475645358742, "original_dtype": "float32"}}, {"name": "block_14_project_BN/moving_mean", "shape": [160], "dtype": "float32", "quantization": {"dtype": "uint8", "min": -2.2513974021462833, "scale": 0.01619710361256319, "original_dtype": "float32"}}, {"name": "block_14_project_BN/moving_variance", "shape": [160], "dtype": "float32", "quantization": {"dtype": "uint8", "min": 0.13722024857997894, "scale": 0.0019218767974890914, "original_dtype": "float32"}}, {"name": "block_15_expand_BN/moving_mean", "shape": [960], "dtype": "float32", "quantization": {"dtype": "uint8", "min": -0.005620292533992552, "scale": 4.8872108991239586e-05, "original_dtype": "float32"}}, {"name": "block_15_expand_BN/moving_variance", "shape": [960], "dtype": "float32", "quantization": {"dtype": "uint8", "min": 0.7515851855278015, "scale": 0.041281344142614626, "original_dtype": "float32"}}, {"name": "block_15_depthwise_BN/moving_mean", "shape": [960], "dtype": "float32", "quantization": {"dtype": "uint8", "min": -14.9970272064209, "scale": 0.09200630187988282, "original_dtype": "float32"}}, {"name": "block_15_depthwise_BN/moving_variance", "shape": [960], "dtype": "float32", "quantization": {"dtype": "uint8", "min": 1.038434675137978e-05, "scale": 0.08741170513386154, "original_dtype": "float32"}}, {"name": "block_15_project_BN/moving_mean", "shape": [160], "dtype": "float32", "quantization": {"dtype": "uint8", "min": -2.5034437590954353, "scale": 0.014224112267587699, "original_dtype": "float32"}}, {"name": "block_15_project_BN/moving_variance", "shape": [160], "dtype": "float32", "quantization": {"dtype": "uint8", "min": 0.03509804978966713, "scale": 0.00047395841455927083, "original_dtype": "float32"}}, {"name": "block_16_expand_BN/moving_mean", "shape": [960], "dtype": "float32", "quantization": {"dtype": "uint8", "min": -0.007729148492217064, "scale": 7.577596560997121e-05, "original_dtype": "float32"}}, {"name": "block_16_expand_BN/moving_variance", "shape": [960], "dtype": "float32", "quantization": {"dtype": "uint8", "min": 0.9495568871498108, "scale": 0.15056468528859757, "original_dtype": "float32"}}, {"name": "block_16_depthwise_BN/moving_mean", "shape": [960], "dtype": "float32", "quantization": {"dtype": "uint8", "min": -5.412429959166284, "scale": 0.033827687244789274, "original_dtype": "float32"}}, {"name": "block_16_depthwise_BN/moving_variance", "shape": [960], "dtype": "float32", "quantization": {"dtype": "uint8", "min": 3.072336039622314e-05, "scale": 0.23315025697678826, "original_dtype": "float32"}}, {"name": "block_16_project_BN/moving_mean", "shape": [320], "dtype": "float32", "quantization": {"dtype": "uint8", "min": -9.406421404258879, "scale": 0.050845521104102044, "original_dtype": "float32"}}, {"name": "block_16_project_BN/moving_variance", "shape": [320], "dtype": "float32", "quantization": {"dtype": "uint8", "min": 0.1700691431760788, "scale": 0.020288239565550113, "original_dtype": "float32"}}, {"name": "Conv_1_bn/moving_mean", "shape": [1280], "dtype": "float32", "quantization": {"dtype": "uint8", "min": -0.002279214999255012, "scale": 1.6883074068555645e-05, "original_dtype": "float32"}}, {"name": "Conv_1_bn/moving_variance", "shape": [1280], "dtype": "float32", "quantization": {"dtype": "uint8", "min": 0.8082547783851624, "scale": 0.006717292701496798, "original_dtype": "float32"}}]}]}